FashionMNIST_MLP/final_Adam.pth (torch, 637681 bytes, 4 tensors)

layer1.weight f4 [200, 784]
0	0xbf12a86b	-0.57288235
1	0x3f329297	0.6975493
2	0x3d0243d0	0.031802952
3	0xbe766ef7	-0.24065767
4	0x3ea3bfa8	0.3198216
5	0xbe5122d6	-0.20423445
6	0xbf4ce9be	-0.8004416
7	0xbea2a715	-0.31768098
8	0x3f864fbd	1.0493084
9	0xbd4455b4	-0.047933295
10	0x3f19f044	0.6013224
11	0x3e6f8a14	0.23392516
12	0x3dba2bd8	0.09090394
13	0xbea37304	-0.31923687
14	0xbebc0f8b	-0.36730608
15	0x3e852da3	0.2601138
16	0x3ea35eb1	0.3190818
17	0xbbc1b1d3	-0.005911091
18	0xbf2c0dbf	-0.67208475
19	0xbe198cbe	-0.14995095
20	0x3ea641e2	0.3247214
21	0x3f2c412b	0.6728694
22	0x3d1abe76	0.037779294
23	0xbeaff896	-0.34369344
24	0x3df36f5e	0.11886476
25	0x3ecc4f50	0.3990426
26	0xbc73a6db	-0.014871324
27	0x3d4321fc	0.047639832
28	0x3fe60c0a	1.7972424
29	0x3f9001d0	1.1250553
30	0x3f589a5e	0.84610546
31	0x3e96d8c2	0.29462248
32	0x3f9eaf34	1.2397218
33	0xbf5f77c4	-0.8729212
34	0xbe9a6c47	-0.30160734
35	0x3d240e8f	0.040052947
36	0xbd9390df	-0.07205366
37	0xbe00cf88	-0.12579167
38	0x3cc8af2a	0.024497587
39	0x3e88a5ec	0.26689088
40	0x3ef9c1be	0.48780626
41	0x3ef79a0d	0.4835972
42	0x3e1bfd8b	0.15233438
43	0x3e9c51e6	0.30531234
44	0xbd78b634	-0.060720637
45	0xbdb618ec	-0.08891472
46	0x3e0c217f	0.13684653
47	0xbeb89c82	-0.36056906
48	0xbf13b8ef	-0.5770406
49	0xbec141cf	-0.3774552
50	0xbf37816d	-0.71681863
51	0x3eb9acf6	0.3626477
52	0xbefb345e	-0.4906339
53	0x3eececb7	0.4627435
54	0x3e940285	0.28908172
55	0x40011562	2.01693
56	0xbe4b58ee	-0.19858143
57	0x3f2592cc	0.6467712
58	0xbe8978f1	-0.26850083
59	0x3d8dfa7f	0.06932544
60	0xbf60e4ea	-0.87849295
61	0xbea8ec0d	-0.32992592
62	0xbe1db240	-0.15400028
63	0x3cfcdfff	0.030868528
64	0x3e756920	0.23965883
65	0x3e56c2a5	0.20972688
66	0xbe527e97	-0.20556103
67	0xbe9f81d6	-0.31153744
68	0x3e95c7fb	0.29254135
69	0x3f08029e	0.53128994
70	0x3eb177fa	0.34661847
71	0xbe418e46	-0.1890193
72	0xbe8a0026	-0.26953238
73	0x3e2c715b	0.16840117
74	0xbe535483	-0.20637707
75	0x3dc30fd0	0.095245
76	0xbee0321b	-0.43788227
77	0x3ea0e003	0.31420907
78	0xbbf23c03	-0.007392408
79	0x3efcef9d	0.4940156
80	0x3d646cdf	0.05576789
81	0xbe9dbc49	-0.30807713
82	0xbf489354	-0.78349805
83	0x3f14fac9	0.5819517
84	0xbebea1a2	-0.3723269
85	0x3ed1454b	0.4087318
86	0x3d454813	0.04816444
87	0x3f2a3b58	0.664968
88	0xbf395096	-0.7238859
89	0x3deecbe8	0.11659986
90	0x3edbd6ab	0.42937216
91	0x3e56748c	0.20942897
92	0x3ea8c613	0.3296362
93	0xbde95933	-0.113939665
94	0x3e6fc662	0.23415521
95	0xbde7f680	-0.11326313
96	0xbdd7babc	-0.10533664
97	0x3d88cafa	0.0667934
98	0xbe180c15	-0.14848359
99	0xbe9d626e	-0.30739158
100	0xbd908424	-0.07056454
101	0x3e160d7b	0.1465358
102	0x3e9e524e	0.30922168
103	0x3da5f1db	0.08102771
104	0xbeed31c1	-0.46327022
105	0x3d928a86	0.071553275
106	0x3e31bb43	0.17356591
107	0x3e06ffb5	0.13183482
108	0x3db36b11	0.08760656
109	0xbf240c1b	-0.6408097
110	0xbf100965	-0.56264335
111	0xbf8215c9	-1.0162898
112	0x3f0c55ba	0.5481831
113	0x3e265b81	0.16245843
114	0x3f90ab37	1.1302251
115	0x3e15354e	0.14571115
116	0xbca2567e	-0.019816633
117	0x3eefecdb	0.46860394
118	0x3eabd17f	0.3355827
119	0x3e134fa1	0.14385845
120	0x3d3ba48e	0.04581123
121	0xbe3790ed	-0.17926379
122	0x3c8c5162	0.01712865
123	0x3e7d9a9a	0.24766007
124	0x3eaee97d	0.34162512
125	0xbdce369d	-0.100690104
126	0xbf0ab835	-0.5418733
127	0xbe80681c	-0.2507943
128	0x3e280439	0.16407861
129	0xbe050b95	-0.129927
130	0xbda407f0	-0.080093265
131	0x3e1f693b	0.15567486
132	0xbe9bd92f	-0.30439135
133	0xbdb9c30c	-0.09070405
134	0x3eda92ae	0.42690033
135	0x3e8cb0ab	0.27478537
136	0x3f44e260	0.7690792
137	0xbeaa8305	-0.33303085
138	0x3e52df3d	0.20592971
139	0x3f0401df	0.51565355
140	0x3dff0925	0.12452916
141	0x3f420b3f	0.7579841
142	0x3f1560fe	0.58351123
143	0xbf237386	-0.6384815
144	0xbdc71dd3	-0.097224854
145	0x3e095330	0.1341064
146	0x3f357aa5	0.70890266
147	0xbce2435f	-0.027620016
148	0xbe618ccc	-0.22026366
149	0xbd41f64d	-0.04735403
150	0xbe170727	-0.14748822
151	0x3e60d2a7	0.21955357
152	0x3df5ad3c	0.119959325
153	0xbe89ad7b	-0.26890168
154	0xbf053784	-0.52037835
155	0xbebf97e4	-0.3742057
156	0xbe3a388b	-0.18185632
157	0x3e61f619	0.22066535
158	0xbd3bc047	-0.045837667
159	0xbede4108	-0.4340899
160	0xbee1db80	-0.44112778
161	0xbc91c612	-0.017794643
162	0x3f4ee437	0.8081698
163	0xbca7abe2	-0.020467702
164	0x3ee1f685	0.44133392
165	0xbe7c17bc	-0.24618429
166	0x3e4933e7	0.19648705
167	0xbdd55222	-0.10416056
168	0x3fc2356e	1.5172555
169	0x3f38bb2a	0.7216059
170	0x3e96e6f6	0.29473084
171	0xbf29e64d	-0.66367036
172	0xbe3a97bc	-0.18221945
173	0x3eab8f1b	0.33507618
174	0x3f251730	0.64488506
175	0x3d57a414	0.05264671
176	0x3dc74c1a	0.09731312
177	0xbe09f850	-0.1347363
178	0xbe8677da	-0.26263314
179	0x3d53ddee	0.05172532
180	0xbde7d9f7	-0.1132087
181	0x3f1ba14b	0.6079299
182	0x3eaf167e	0.34196848
183	0x3d36f013	0.044662546
184	0x3dbe01cd	0.09277687
185	0xbe216e6a	-0.15764776
186	0xbe5611e5	-0.20905264
187	0x3c1f73e2	0.009732218
188	0xbe7bee9d	-0.24602742
189	0xbdbc657d	-0.09199045
190	0x3f011744	0.50426126
191	0x3eb917a8	0.3615086
192	0xbd58a99e	-0.052896135
193	0x3e2e67a5	0.17031725
194	0x3efdf7c6	0.496031
195	0x3f96914e	1.1763093
196	0x3f189d1f	0.5961475
197	0x3f14ed14	0.5817425
198	0x3e107aa7	0.14109288
199	0xbefc19c1	-0.492384
200	0xbee6b6fb	-0.45061478
201	0x3dc224c5	0.094796695
202	0x3ed516db	0.41619
203	0xbdcb505d	-0.099274375
204	0xbece9fb7	-0.40356228
205	0xbec11bb6	-0.37716454
206	0xbe835231	-0.25648645
207	0xbe405026	-0.18780574
208	0x3c737203	0.0148587255
209	0x3e25aaff	0.16178511
210	0x3d826362	0.06366612
211	0xbdad6288	-0.08466059
212	0x3e4cb581	0.19991113
213	0xbd86c521	-0.06580568
214	0xbdd8e289	-0.10590083
215	0xbea1d52b	-0.31607947
216	0xbe89d3c6	-0.26919383
217	0x3dfaa4a9	0.12238438
218	0x3eaea65a	0.3411129
219	0x3e458c2f	0.19291757
220	0xbf29d917	-0.6634688
221	0x3d69bbf0	0.057063997
222	0x3e99ccf1	0.3003917
223	0xbfaae832	-1.335211
224	0xbf407917	-0.7518477
225	0x3e3ae266	0.18250427
226	0x3e8214eb	0.25406584
227	0xbf2179ee	-0.63076675
228	0x3f1ed66a	0.6204592
229	0x3e8ad5d1	0.27116254
230	0x3ec01d64	0.37522423
231	0x3e936d72	0.28794438
232	0xbea03008	-0.31286645
233	0xbe8f64a3	-0.28006467
234	0xbecbd545	-0.3981115
235	0xbea592fa	-0.32338697
236	0xbe4970ef	-0.19671987
237	0x3da7cf9f	0.081938975
238	0xbe49bdf0	-0.19701362
239	0xbd83464a	-0.06409891
240	0xbe81fbc9	-0.2538741
241	0xbdff0817	-0.12452715
242	0xbd92eff1	-0.071746714
243	0xbe86053c	-0.2617587
244	0xbe21c9dd	-0.15799661
245	0x3d026c78	0.031841725
246	0x3e07075d	0.13186403
247	0x3e9f3073	0.3109165
248	0x3e14580c	0.14486712
249	0x3e00d037	0.12579428
250	0xbe1cdd6c	-0.1531884
251	0xbfb9f59b	-1.4528078
252	0xbfa91b85	-1.3211523
253	0x3e03be23	0.128655
254	0xbf1bba64	-0.60831285
255	0xbf2185bc	-0.6309469

layer1.bias f4 [200]
0	0xbed56221	-0.4167643
1	0xbeea200c	-0.45727575
2	0x3e7cf5e0	0.24703169
3	0x3ed47a04	0.4149934
4	0xbd8e2b99	-0.06941909
5	0x3f223399	0.6335998
6	0xbdee5896	-0.1163799
7	0x3c0e06ce	0.008668615
8	0x3e968648	0.29399323
9	0x3e0fc13d	0.14038558
10	0xbf30dc70	-0.6908636
11	0xbede59b5	-0.43427816
12	0x3d58afd5	0.05290206
13	0xbdcb371a	-0.09922619
14	0x3d4759e7	0.048669722
15	0x3e3c349c	0.18379444
16	0x3de1ab58	0.11019009
17	0x3e4626eb	0.19350784
18	0xbdedeb5c	-0.11617157
19	0x3d8b6761	0.06806827
20	0x3d7fd5a1	0.06245959
21	0xbd865e54	-0.065609604
22	0xbe19c518	-0.15016592
23	0xbe351d9d	-0.17687078
24	0x3e6b14c3	0.22957139
25	0x3ba48cd7	0.005021672
26	0xbd56efbf	-0.052474733
27	0xbeeb8ec9	-0.46007374
28	0x3eb2f734	0.34954226
29	0x3e3a8d7b	0.18218033
30	0xbecc3641	-0.39885142
31	0xbdd9395a	-0.10606642
32	0xbe1d5333	-0.15363769
33	0x3e9066e3	0.28203496
34	0x3d5de4a1	0.054173116
35	0xbf28bf90	-0.659173
36	0xbed3af1c	-0.41344535
37	0x3e4fe642	0.2030268
38	0x3f0103d3	0.5039646
39	0x3e11c31f	0.14234589
40	0xbe93da4a	-0.2887748
41	0x3d8c5f36	0.068540975
42	0xbe5a7e04	-0.21337134
43	0xbeecc376	-0.46242875
44	0xbd81897f	-0.063250534
45	0x3e28c9b5	0.16483195
46	0xbbc23a51	-0.005927362
47	0x3d226506	0.039647125
48	0xbddbf275	-0.107396044
49	0x3e49032b	0.19630115
50	0x3ec87196	0.3914916
51	0xbef4362d	-0.47697583
52	0xbed63168	-0.4183457
53	0x3dadb087	0.084809355
54	0xbed069d0	-0.4070573
55	0xbda458bb	-0.080247365
56	0x3ea9ab0c	0.3313831
57	0xbe873d7e	-0.26414102
58	0x3ed020be	0.4064998
59	0xbe72afc0	-0.23699856
60	0x3f40b117	0.7527022
61	0x3e6fd540	0.23421192
62	0x3d9c23f4	0.07624045
63	0x3dc708f3	0.09718504
64	0x3f051c92	0.5199672
65	0xbe8e7b68	-0.27828526
66	0x3f01e261	0.5073605
67	0x3e8af97a	0.2714346
68	0x3e8c048d	0.27347222
69	0xbcb0ca03	-0.021580702
70	0xbeadf65e	-0.33977026
71	0x3df3a34e	0.11896382
72	0xbdd439a8	-0.103625596
73	0xbf0269cb	-0.5094268
74	0x3f04e5e4	0.51913285
75	0x3ea12b1c	0.31478202
76	0xbe989b44	-0.29805958
77	0xbd8eb9c1	-0.069690235
78	0xbe0fd9d7	-0.14047943
79	0xbbf42b9d	-0.007451488
80	0x3ead10ee	0.3380198
81	0x3e417fcf	0.18896411
82	0x3dfb2f62	0.12264897
83	0xbf08416f	-0.53224844
84	0xbeec932c	-0.46206033
85	0x3e3e2571	0.1856897
86	0x3e4e09a1	0.2012086
87	0x3e792c78	0.2433337
88	0x3f40d165	0.7531951
89	0x3f02c6ea	0.5108477
90	0xbf24b5d6	-0.6433996
91	0x3e834573	0.25638923
92	0x3ee3b812	0.44476372
93	0xbd4c9b0f	-0.049952563
94	0xbe9101b2	-0.28321606
95	0x3e7c92cf	0.24665378
96	0xbd1fb68b	-0.038992446
97	0x3df1e9e5	0.1181219
98	0xbead0bb4	-0.3379799
99	0xbe360c29	-0.17778076
100	0xbedc0852	-0.42975098
101	0xbef36119	-0.47535017
102	0x3c9c24c3	0.019060498
103	0x3cfac837	0.030613048
104	0xbe6b6554	-0.22987872
105	0x3f39137f	0.72295374
106	0x3dea52eb	0.114415966
107	0x3e1f03e9	0.15528835
108	0xbf016452	-0.505437
109	0x3ea6d638	0.3258531
110	0x3ebb5a96	0.3659255
111	0x3cf0104e	0.02930465
112	0xbeb861b6	-0.36012048
113	0xbdab2ac3	-0.083577655
114	0x3ec2a8c5	0.38019386
115	0x3d5fc5ba	0.054631926
116	0x3e22c76a	0.15896383
117	0x3d511c44	0.051052347
118	0xbe5f2051	-0.21789671
119	0xbeaef73a	-0.34172994
120	0x3f2b3b0b	0.6688697
121	0xbc3cc896	-0.011522433
122	0x3f19b8b4	0.6004746
123	0x3e99f845	0.30072227
124	0x3c5c7231	0.01345496
125	0x3ed89f10	0.42308855
126	0xbe4d022d	-0.20020361
127	0xbd7549f9	-0.059885
128	0xbe813deb	-0.25242552
129	0x3e2d06f8	0.1689719
130	0xbeb4bda2	-0.35300928
131	0x3f25666f	0.64609426
132	0x3e7ee470	0.2489183
133	0x3ebc55e5	0.36784282
134	0x3e0c4469	0.13697971
135	0x3c179a8a	0.009253154
136	0xbe57a6cc	-0.21059722
137	0xbccb9a4f	-0.024853854
138	0x3f16fbdd	0.5897806
139	0x3ee6cb7d	0.45077124
140	0x3f06941e	0.5256976
141	0x3ec3cdb4	0.38242877
142	0x3e331667	0.17489015
143	0xbe4ca1fa	-0.19983664
144	0xbb8e99c0	-0.0043518245
145	0x3e7127c1	0.23550321
146	0x3e827b48	0.2548468
147	0x3e43adb7	0.19109236
148	0x3f19c959	0.6007286
149	0xbe0dc6bf	-0.13845347
150	0xbe1ced99	-0.15325011
151	0xbeb50892	-0.353581
152	0x3f20d9f3	0.62832564
153	0xbec23275	-0.3792912
154	0xbed56ba3	-0.41683683
155	0x3d88cce5	0.066797055
156	0xbd8c6974	-0.06856051
157	0xbe745337	-0.23859869
158	0x3da4b6ff	0.08042716
159	0xbc8e058b	-0.017336627
160	0xbf4ff77e	-0.8123702
161	0x3d26bdd5	0.04070838
162	0xbf09fe92	-0.5390407
163	0x3e47265f	0.19448231
164	0xbb52454b	-0.003208476
165	0xbeae9feb	-0.34106383
166	0x3eb7df65	0.35912624
167	0x3e465c77	0.1937121
168	0x3e63ddcb	0.22252576
169	0xbcd7a953	-0.026325857
170	0xbe767caa	-0.24070993
171	0x3ec6ab1e	0.38802427
172	0x3e42f0b4	0.19037133
173	0x3e883e53	0.2661005
174	0x3e198632	0.14992598
175	0xbea762b6	-0.32692498
176	0xbe90cf15	-0.2828299
177	0x3f104feb	0.56371945
178	0x3ecb7e22	0.3974467
179	0xbe5e3fd3	-0.21704035
180	0x3dc044fd	0.093881585
181	0x3eb8a320	0.36061954
182	0x3d7c92dc	0.061663494
183	0x3eb4d0a8	0.35315442
184	0x3d371086	0.044693492
185	0x3e2ef550	0.17085767
186	0x3e876879	0.26446894
187	0x3e40d3b8	0.18830764
188	0x3e639a28	0.22226775
189	0xbf07fe78	-0.53122663
190	0x3ef652c7	0.4811003
191	0xbdcbbe0c	-0.09948358
192	0xbef564b0	-0.4792838
193	0x3e05fa13	0.13083677
194	0x3f114a51	0.5675402
195	0x3d0fa7e4	0.035072222
196	0xbde8df61	-0.11370731
197	0x3eeaf7a4	0.4589206
198	0xbdb91818	-0.09037799
199	0xbe595ee2	-0.21227601

layer2.weight f4 [10, 200]
0	0x3fa47660	1.2848625
1	0x3fc44267	1.5332764
2	0x3eaa7896	0.33295125
3	0xbf868c84	-1.0511632
4	0x3f4735ff	0.77816767
5	0xc00b01f1	-2.1719935
6	0xbfe537ea	-1.7907689
7	0xbf9fecd5	-1.249415
8	0xbe1c5d9c	-0.15270084
9	0xbbdde0c2	-0.006771178
10	0xbf09771c	-0.5369737
11	0x3e12b165	0.14325483
12	0xbee45935	-0.4459931
13	0xbf63fa1b	-0.89053506
14	0xbf9cbfe4	-1.224606
15	0x3e9faca2	0.31186396
16	0x3e600f11	0.21880747
17	0x3f7aa2c3	0.97904605
18	0x3da11ea5	0.07867173
19	0x3eda5852	0.42645508
20	0xbe8f40ce	-0.2797913
21	0x3d08c81a	0.033393957
22	0xbf5b27e7	-0.8560776
23	0xbfa6a42c	-1.3018851
24	0xbe323a75	-0.17405112
25	0x3eb7a476	0.3586766
26	0x3e164afa	0.14677039
27	0xbed9d3a5	-0.42544284
28	0xc02cb932	-2.6988034
29	0x3f1bc8af	0.60853094
30	0x3dd73ef6	0.10510056
31	0x3f1a8e00	0.60372925
32	0xbf8ecb77	-1.1155843
33	0x3ca343a8	0.019929722
34	0x3e9c9031	0.3057876
35	0x3f1eb83d	0.61999875
36	0xbe246d90	-0.1605742
37	0xbfd7a2ad	-1.684652
38	0x3ecb3cb5	0.39694753
39	0xbf7a2d1b	-0.97725075
40	0x3f45a3fc	0.77203345
41	0xc0000a99	-2.0006468
42	0xbf9a39c2	-1.2048876
43	0x3f83086f	1.0236949
44	0x3e21c6cd	0.15798493
45	0x3e5ab900	0.21359634
46	0xbe29cc30	-0.16581798
47	0x3f04761f	0.5174274
48	0x3f2523ff	0.6450805
49	0x3f1f6dca	0.622769
50	0xbe8e72a4	-0.2782184
51	0xbfe3e12c	-1.7803092
52	0x3dcd0049	0.1000982
53	0xbdb09353	-0.0862185
54	0x3f4e666f	0.8062505
55	0xbf9030c9	-1.1264888
56	0x3f12c7e5	0.57336265
57	0xbfb4457e	-1.4083707
58	0xbea9a7d7	-0.33135864
59	0xc0361ae2	-2.8453908
60	0x3eeeac2f	0.4661574
61	0x3f6ebe8e	0.93259513
62	0x400917a0	2.142067
63	0x3c819c51	0.015821608
64	0xbd3292bc	-0.043596968
65	0xbfc55b60	-1.541851
66	0xc06a998a	-3.6656213
67	0xbfb0d847	-1.3816003
68	0xbeaeeca2	-0.34164912
69	0x3fdcff08	1.7265329
70	0xbfade31b	-1.3584932
71	0x3ea1d365	0.31606594
72	0xbfe000dc	-1.7500262
73	0x3f4f2ef4	0.8093102
74	0x400aeb02	2.1705937
75	0x3d381d5e	0.04494988
76	0xbfcb96ee	-1.5905435
77	0xbf3aefac	-0.7302196
78	0x3cc10de5	0.023566196
79	0x3eb12fa4	0.3460666
80	0x3f1ba539	0.60798985
81	0xbf10c3d4	-0.5654881
82	0xbdaa70f4	-0.08322325
83	0x3f17f349	0.593556
84	0xbdab6300	-0.08368492
85	0x3f1eb7d9	0.6199928
86	0xbf254b1a	-0.6456772
87	0xbece9971	-0.40351442
88	0x3fb1c343	1.3887714
89	0xbe90ee9e	-0.2830705
90	0x3e7d0ee0	0.24712706
91	0xbee2d9fd	-0.44306937
92	0xbed16b52	-0.4090219
93	0x3fdab775	1.7087237
94	0x3ea6051d	0.32425776
95	0x3e8f730b	0.28017458
96	0xbfd7b8d7	-1.6853284
97	0xc02e7e30	-2.7264519
98	0x3e1da740	0.15395832
99	0xc01aa851	-2.4165232
100	0xc004f83b	-2.0776508
101	0xbf1f7fed	-0.62304574
102	0xbe210ecd	-0.15728302
103	0xbcf01651	-0.029307516
104	0xc07f6cde	-3.9910197
105	0x3fdf7a57	1.745921
106	0xbf7decb9	-0.99189335
107	0x3f2fabb8	0.68621397
108	0x3f59907f	0.8498611
109	0xbc466505	-0.012109046
110	0x3f898b83	1.0745701
111	0xbf5330ab	-0.82496136
112	0xbfd1a63b	-1.6378855
113	0xbf992dc8	-1.1967096
114	0x3f5fc597	0.87410873
115	0xbf51054d	-0.81648713
116	0x3ef4ebd9	0.47836187
117	0x3e1de2b5	0.15418513
118	0x3ed2386a	0.41058666
119	0x3e8bfb1d	0.27340022
120	0xbf668f86	-0.9006275
121	0xbf38f535	-0.72249156
122	0x3c27be59	0.0102382535
123	0x3e80a26d	0.2512392
124	0x3e82976e	0.25506157
125	0xbec71bc5	-0.38888374
126	0xbfa769e9	-1.3079196
127	0x3e546ff9	0.20745839
128	0xbd330629	-0.043707047
129	0x3fe96208	1.8233042
130	0x3f0aa0f4	0.54151845
131	0xbf1e4e86	-0.6183857
132	0x3f5e50d5	0.8684209
133	0x3e7041c1	0.23462583
134	0xbfcc7e1a	-1.5975983
135	0x3fccbe35	1.5995547
136	0x3e515fde	0.20446727
137	0x3f9e7b47	1.2381371
138	0x3e33a5dc	0.17543739
139	0x3e201fce	0.15637133
140	0x3dafa817	0.085769825
141	0x3f40b85f	0.7528133
142	0xbf7f3bbd	-0.9970053
143	0x3fccb6b5	1.5993258
144	0xbdfca0f8	-0.1233539
145	0xbd09284f	-0.033485707
146	0xbfb47afd	-1.4100033
147	0x3f1b20bc	0.60596824
148	0xbf112cc6	-0.56708944
149	0x3f175e04	0.5912783
150	0xbeaf4657	-0.34233353
151	0xbea159e2	-0.31513888
152	0xbf3c33c6	-0.735165
153	0xbf60da81	-0.8783341
154	0x3f282d60	0.65694237
155	0x3fed4be6	1.8538787
156	0x3e226ce2	0.15861848
157	0xbf2237c9	-0.6336637
158	0xbf284540	-0.6573067
159	0x3d67419e	0.05645906
160	0x3f4a536a	0.7903353
161	0x3e773b28	0.2414366
162	0xbe67c218	-0.22632635
163	0x3ea8b0af	0.329473
164	0xbe07883b	-0.13235562
165	0x3e5dcdd1	0.21660544
166	0xc091c113	-4.5548186
167	0xbf2c00a6	-0.6718849
168	0x3f88962c	1.0670829
169	0x3da9a992	0.08284296
170	0xbfdc3935	-1.7204958
171	0x3e6089b6	0.21927533
172	0xbeb82125	-0.35962787
173	0xbf0078a9	-0.5018411
174	0x3f9e1ef0	1.2353191
175	0x3ed62589	0.41825512
176	0x3edd4001	0.43212894
177	0x3eb25796	0.34832448
178	0x3f96121c	1.1724277
179	0x3ece6674	0.4031254
180	0x3fd1b6f4	1.6383958
181	0x3ddd511b	0.10806485
182	0x3f03cd72	0.5148536
183	0x3ef178ee	0.47162575
184	0x3f2a7a71	0.6659308
185	0xbf3b9c7f	-0.7328567
186	0x3fd09510	1.629549
187	0x3f7ea96b	0.9947726
188	0x4014db3c	2.325881
189	0xbf6c6933	-0.9234802
190	0x3f2f5f81	0.685051
191	0x3e2e4ef6	0.17022309
192	0xbe12245c	-0.14271683
193	0x3e166ea1	0.14690639
194	0x3f14296a	0.5787569
195	0xbf4c0b24	-0.797045
196	0x3f475231	0.7785979
197	0x3e7a82b7	0.24463926
198	0xbe8f8bb4	-0.28036273
199	0x3ed7d6f2	0.42156178
200	0x3f76ed3c	0.9645574
201	0x3fadcaf3	1.357756
202	0x3ed95888	0.42450356
203	0x3f417d1a	0.75581515
204	0x3e2a4c77	0.16630732
205	0xbf31a2ca	-0.6938902
206	0xbe46e830	-0.1942451
207	0xbc1f7990	-0.009733573
208	0x3facb9dc	1.349422
209	0xbe6a575d	-0.22884889
210	0xbcbd3ec5	-0.02310122
211	0x3f28c9af	0.65932745
212	0x3e9c5d17	0.30539772
213	0xbed723d9	-0.42019537
214	0xbd3a7851	-0.0455249
215	0x40250558	2.5784512
216	0xbad51523	-0.001625691
217	0x3ea49ac0	0.32149315
218	0xbda2d2ae	-0.0795034
219	0x3e5fbf3c	0.21850294
220	0xbff47e58	-1.9101057
221	0x3f81a8cc	1.0129638
222	0x3fb409cd	1.4065491
223	0xbb1caadf	-0.0023905558
224	0xbfe4d0bf	-1.7876204
225	0x3ea495c4	0.32145512
226	0x3ec22e48	0.37925935
227	0x3f92b98e	1.1462877
228	0xbe6755de	-0.2259135
229	0xbf99fc3f	-1.2030104
230	0xbf218485	-0.63092834
231	0xbf2bf45a	-0.67169726
232	0xbe9f606b	-0.3112825
233	0xbe82aa35	-0.25520483
234	0x3de5fa34	0.11229363
235	0x3e394c46	0.18095502
236	0x3ceb450f	0.028719453
237	0xbf80f0c1	-1.0073472
238	0x3f7398a4	0.95154786
239	0x3d9805df	0.07422995
240	0x3fa63af1	1.2986737
241	0x3f47effa	0.7810055
242	0x3e47b3ce	0.19502184
243	0xbd960b0a	-0.07326324
244	0x3e558986	0.20853242
245	0xbee83fc7	-0.45361158
246	0x3ecc46aa	0.39897662
247	0xbd5f2dc7	-0.054487016
248	0x3f3f33a9	0.746882
249	0xbe80821f	-0.25099275
250	0x3f05295b	0.5201623
251	0x3eae9ff5	0.34106413
252	0x3d1fe65c	0.039038047
253	0x3d78a1a0	0.060701013
254	0xbeb1f876	-0.34759873
255	0xbe990f5a	-0.29894525

layer2.bias f4 [10]
0	0x3cb42b36	0.02199326
1	0x3de9df69	0.11419565
2	0xbcb48933	-0.022038078
3	0x3d2c67ef	0.042091306
4	0x3d636198	0.055512995
5	0xbd04922b	-0.03236596
6	0x3aad3f1b	0.001321766
7	0x3c845994	0.016155995
8	0x3deec9e8	0.11659604
9	0x3d33ab47	0.043864515
