FashionMNIST_MLP/final_Adam.pth (torch, 637681 bytes, 4 tensors)

layer1.weight f4 [200, 784]
00000000: 3d3a 71bd a702 463d 29c0 bebc 6e21 c0bd
00000010: 76a0 103e c15d ea3d dcc1 a03e 0203 5c3e
00000020: 1bc1 1a3d 2ad1 193d ebaa c73e 7fc7 ce3e
00000030: 3148 333d 527a c63d 3b67 5e3d edb5 e73c
00000040: afd0 b43e 89e9 f63e e0c8 013e 85ac 793c
00000050: 3559 793e 2894 cb3e bb13 353e d2b9 853c
00000060: 9700 b0bd c7d7 933b c4bd 62b9 c62c c23d
00000070: 2e20 1a3a 61b4 9e3d 3227 27be f8c2 c63c
00000080: a70d 0abd 1f84 15bc 3bc8 9ebd c30c fcbd
00000090: 035e 113e 3187 e33e 6e4d e93e ccc8 9c3e
000000a0: 3269 a93c 9d0c de3d 4924 3d3e fc0c 263d
000000b0: adbb 523e e3b1 e73e 7a62 d83e c071 773e
000000c0: 84a3 a8bd f548 1cbd 456e f2bc 921a 0b3d
000000d0: 5258 2c3d 2a47 c73d 5d10 093e b63c 8b3e
000000e0: d771 f63d 2ee0 0e3d 7280 80be 2acf 76bc
000000f0: 83b4 8cbd 0afd 89be a785 50be 821a 9c3c
00000100: 54de 2d3e 2fa4 433e cb26 923d ef09 7a3b
00000110: c4fc 42bd d4f3 20bd 27b5 193d f960 48bc
00000120: d9e6 8b3c ac06 a8bb d334 043e 6065 2e3e
00000130: 271c 6fbc 05fe 27be 779c 6fbe 2fe7 0cbe
00000140: 181a d03d 8c04 fc3d 30d8 0f3e 259e 423e
00000150: 0e8e d53c 2fcf eebc a4ba 59bd 86a2 bbbd
00000160: 87c7 afbd 5ce1 6fbe 3cdb babd 03f9 05be
00000170: 908b 14be 47a4 6c3d 2c23 113e f9dd d83d
00000180: 3814 4a3d 9c87 753d 14fb fe3d 47e9 963d
00000190: 1a3c 8b3d bb16 093e 060a 693d 7700 05be
000001a0: b720 1ebe f368 59be 93eb 55be 224b 01be
000001b0: 3fc3 c63c 843a 6d3d c4a5 3e3e 2b21 cabc
000001c0: 64d9 403c 2483 b8bc db9b 06be d825 f7bd
000001d0: 39a9 f1bd d75e 16be 41d7 19be ab32 1bbe
000001e0: 7f28 e13c 5c60 103e cee3 1b3e 064b 183e
000001f0: 3ed6 9b3d 1d1e c23d bbad be3d 1390 d33d
00000200: 8569 d03d aa67 213e d0ab 163e 4c2c fd3d
00000210: 8876 d1bc 4aa2 08be 54b7 6fbe 611e 26be
00000220: 969a 053c 315e 1d3d 0764 623d ff52 8d3e
00000230: 07f0 95ba 19bb 2dbe 1a3d 4ebe 184b 26be
00000240: 531a a2bd a2c9 cabd 29dd e8bd 5787 95bc
00000250: 7eaa 283d 6929 283e c6ec 1f3e feb0 033e
00000260: 05d9 113e 6545 a73d 7642 a53d 10ba 0a3e
00000270: 674a f73d e9c2 583e c282 333e 3164 e23d
00000280: 60b9 29bd 13f1 fcbd f100 3bbe ed2f 54be
00000290: 5f2b 2ebe de39 4abd e9b9 8b3d c06a 643e
000002a0: 97ef 52bd ea2f 0ebe 70a5 6bbd f16a 08be
000002b0: f92d 5ebd 37b1 e5bd 436e 5abd 1c0c acbd
000002c0: 63b0 913b 980b 163e 0082 c83d 4fc5 9a3d
000002d0: 42d1 9a3d 9dfd 453d 47b7 ba3d fb58 9a3d
000002e0: af4b a43d f18c 173e 8c02 213e dd6b c73d
000002f0: fe2b 03bb ece6 16be 80d3 28be 70f3 23be
00000300: 39be 46be 3723 353c 3f49 403e c48e e33d
00000310: 2148 f43b 65f7 a0bd 6362 a7bd d727 eebd
00000320: 6ea3 8bbd 22c8 8abd 353f 2fbd 7161 01be
00000330: 6f99 76bd 74be 953d 0581 d63d 7315 9e3d
00000340: 85d3 713d 26ac 593d c9f3 3b3d 51d3 263d
00000350: 3a36 913d 00a8 383e 3665 7b3e c4f0 483e
00000360: 6fc7 923c 4111 f7bd 741c 9ebd bc29 f9bd
00000370: 1eed 1bbe 4d7c c83d 1e51 833d 6e60 ecbc
00000380: 4b72 07be cfe0 e6bd 3c90 a7bb aae2 a9bd
00000390: bbda 80bd af3c debc 5d85 0fbd f46a 01be
000003a0: 8877 94bd f867 043d dfc6 a93d 7fae 7c3d
000003b0: 3fe3 f83c f00c aabc bf71 5ebb 5892 8dbc
000003c0: 7e70 7a3d 5761 2a3e b2a8 283e 6dfe f13c
000003d0: 2ca7 83bd 0a1d 58bd 2c61 82bd ceab 08be
000003e0: 0869 64bd a45d b2bc 5679 803c 0810 efbd
000003f0: db84 47be 3441 b4bd 5b4e 99bd 5c33 b3bd
-0.05889343 0.048342373 -0.023284988 -0.09381376 0.14123711 0.114436634 0.31397903 0.21485522
0.037781816 0.03755299 0.38997588 0.40386578 0.04377002 0.096912995 0.054297667 0.028284991
0.35315463 0.48225048 0.12674284 0.015238886 0.24350436 0.39761472 0.17683308 0.016323958
-0.085938625 0.0045118066 -0.00021623733 0.09481196 0.0005879429 0.07749248 -0.16323546 0.02426289
-0.033704426 -0.009125738 -0.07753035 -0.123071216 0.14196019 0.4443908 0.45566887 0.30621946
0.020680044 0.108422495 0.18470873 0.040539727 0.20579405 0.45252904 0.42262632 0.24164486
-0.08234313 -0.038155515 -0.029593596 0.033960886 0.042076416 0.0973037 0.13385148 0.27194756
0.12033432 0.034881763 -0.25097996 -0.01506404 -0.068703674 -0.26950866 -0.20363484 0.019055609
0.16979343 0.191056 0.071363054 0.0038152894 -0.047604337 -0.039295033 0.037526276 -0.012230151
0.01707785 -0.0051277485 0.12910776 0.17030859 -0.014594114 -0.16405495 -0.2339953 -0.13760065
0.10161227 0.12305555 0.14047313 0.1900564 0.026068714 -0.029151527 -0.05315651 -0.09161858
-0.08582979 -0.23425812 -0.09123847 -0.13083272 -0.14506364 0.057773855 0.14173573 0.10589213
0.04933569 0.05994378 0.12450233 0.07368713 0.06798573 0.13387577 0.056894325 -0.12988459
-0.15442167 -0.21231441 -0.20890646 -0.12626317 0.024263022 0.057917133 0.18617922 -0.024674019
0.01177058 -0.02252347 -0.13145392 -0.12067765 -0.11799855 -0.14684616 -0.15023519 -0.15156047
0.02748513 0.14099258 0.1522362 0.14872369 0.07609223 0.094784 0.0931048 0.10330214
0.10176376 0.15762201 0.14713979 0.123619646 -0.025569215 -0.13343158 -0.23409778 -0.16222526
0.008154532 0.038419906 0.055271175 0.27602383 -0.0011439332 -0.16965903 -0.20140496 -0.16239583
-0.07915177 -0.0990174 -0.11370308 -0.018253012 0.04117822 0.16422047 0.15617666 0.12860486
0.14242943 0.08167533 0.08069317 0.1354754 0.12074738 0.21168102 0.17530349 0.11054266
-0.041436553 -0.12350669 -0.18262078 -0.20721407 -0.17008732 -0.049371593 0.06822569 0.22306347
-0.051498022 -0.13885465 -0.05753082 -0.13322045 -0.05424306 -0.11215442 -0.05332781 -0.08400747
0.0044460758 0.1465286 0.097904205 0.07557165 0.07559444 0.048337568 0.09116989 0.07536503
0.08022248 0.14799859 0.15723628 0.0973737 -0.0020015235 -0.14736527 -0.16486931 -0.16010833
-0.19408502 0.011055759 0.18777941 0.11111215 0.0074548875 -0.07859687 -0.08173063 -0.116286926
-0.06818281 -0.067764536 -0.04278489 -0.12634827 -0.06020492 0.07311717 0.10473827 0.07718935
0.05903961 0.05314269 0.04588679 0.04072887 0.07090421 0.18032837 0.24550328 0.19623095
0.017917363 -0.12063838 -0.07720271 -0.12166163 -0.15227172 0.097893335 0.06411956 -0.028854575
-0.13227193 -0.112733476 -0.0051136296 -0.08295186 -0.062917195 -0.027128546 -0.035039295 -0.12638456
-0.07249361 0.032325715 0.08289885 0.06168985 0.030381797 -0.020758122 -0.003394231 -0.017281696
0.061142437 0.16638695 0.16470602 0.029540265 -0.0642837 -0.05276207 -0.0636619 -0.13346788
-0.055764228 -0.021773167 0.015682857 -0.116729796 -0.19484274 -0.08801499 -0.07485648 -0.087500304

layer1.bias f4 [200]
00000000: 135b 3abe 0e25 273d 8fde 42bd c676 9dbd
00000010: 2ae3 24be 837d ac3d cb13 b3bd 6dea 42bb
00000020: 5c11 433d 97e8 c1bd f8e8 723e 67f4 a4bd
00000030: c203 363e 2168 b7bb 6c29 99be fd26 083e
00000040: ae0c 4c3e 0497 ad3d 6714 ddbd e07f 40be
00000050: 2e1a 513d 2a8d a23d 0cc8 5f3d 957a 0a3c
00000060: 76be 8e3e b750 eebb 8eda 983d d59e 97bd
00000070: f720 35bd e027 42bb 29dc 003e d485 523c
00000080: 71d9 d1bd 57e4 bd3d 3c83 2bbd 1163 3bbe
00000090: 5df7 09bd deef 283e d0ec a23d 18c7 f03c
000000a0: a8c8 45bd f8b9 0f3e ee66 d53d 8fc1 043d
000000b0: b739 843d c625 8d3e 2273 4e3d fafe 153c
000000c0: 7c58 fa3d 2559 973d 34d5 b73d 6f01 5a3d
000000d0: 7a2a d33c 12fb 373e 0061 893e b8ce 24bd
000000e0: e8a4 823d 5cdb d23d 1e24 0d3e 6b6b 143e
000000f0: 7cd5 6c3e 311c 523e 8379 6fbe 53b4 043e
00000100: 7de9 b63d 60ff 83bc 7612 b13e 35cb 413d
00000110: 0245 a7bc 4c99 3abe 404a 603e b51d f5bd
00000120: b2fe 243e 77ac 883e b5dc 30be e443 023e
00000130: 4122 1abe 2dca 3d3e d370 8ebc 1bcb 3b3e
00000140: 1bf9 bf3d 8d9d 43be bf18 933d 65ad 8b3d
00000150: f370 223d b5d2 68bd 1779 863d fe0e d9bd
00000160: 7df8 943d ef5a 2cbe 5301 1d3e 7d3d 513e
00000170: f89b 593d 7e02 cc3c 78b4 b0bd c556 863d
00000180: 2aa0 ddbd fc7a a23b 0d5e 2ebe 41f0 90bd
00000190: 9748 ecbd 7aa8 2abd d15b 743e 13f2 253e
000001a0: 1b8f e8bd efe3 8ebb 33f5 6f3e b16f bb3d
000001b0: 2f6d cc3d bcd9 b33d a186 d53d e738 fe3d
000001c0: f18d 17bd 2193 9abe 76c4 fd3d a24f c3bd
000001d0: 5c7f a43d f452 ff3c aa93 6b3e bbd5 e2bd
000001e0: dfe9 b73d 6c3f e23d 7bf7 8a3d f740 2d3e
000001f0: dcb4 b6bd 2339 073d 77c6 303d 0e9a 9f3c
00000200: 85b5 e1bd 7f16 d33d 691c e13d 22d0 813e
00000210: 35d1 363e 3098 113d 1222 4abc 40d8 ad3d
00000220: 7b9e ee3d 77c5 0f3e 9e66 1e3e 71ef 96bd
00000230: 2483 3e3e 2409 02bd b36b 23bd e754 abbd
00000240: 2121 1ebe 7a6c 1bbe e806 863d facd c2bd
00000250: b66c 8e3e 46b5 803b 6531 e4bd 67e5 ea3d
00000260: efd9 163e da11 483d 7451 0f3e 1faa 1a3e
00000270: fc08 c1ba 0431 c9bd 0bda 4a3e 5029 a63b
00000280: f0fd 893e ff66 163e a892 693d caf8 b13c
00000290: f5d2 863e 760a 47be 9297 eebd a0ad 073e
000002a0: cb16 4b3e 4ac4 edbd bbb4 31bd 7264 32be
000002b0: 384f cfbd cc28 c63a ed74 1e3e e8c9 ad3d
000002c0: 3b96 2f3d c299 0abe b8ac 873e 0011 903d
000002d0: 8534 99bd 133d 33bc 0268 ebbd 65cd 5b3e
000002e0: 65e0 3dbe 403a e7bd 9bde 563d 198e ee3c
000002f0: 47ea 58bd 2060 bf3d 4ff0 ab3d 6197 90be
00000300: 48da 103e 1315 7f3d 569e 283e 353f 033d
00000310: 894e 46bd e254 f2bd b95b 3e3e fc34 e73d
-0.18198805 0.040806822 -0.04757553 -0.0768867 -0.16102281 0.08422377 -0.087440096 -0.002974178
0.047623977 -0.09468191 0.23721683 -0.080544285 0.17774871 -0.00559713 -0.29914415 0.13296123
0.19926712 0.084760696 -0.10794907 -0.1879878 0.051050358 0.07937081 0.05463414 0.008452077
0.27879685 -0.0072728056 0.07463561 -0.07403342 -0.04422089 -0.0029625818 0.12583984 0.01284929
-0.10246552 0.09272068 -0.0418732 -0.1829951 -0.03368317 0.16497752 0.07955325 0.02939181
-0.048287064 0.14035785 0.10420023 0.032411154 0.06456321 0.2756788 0.050402768 0.009155029
0.12223908 0.0739005 0.08976212 0.053224023 0.02577709 0.1796687 0.26831818 -0.040236205
0.063791096 0.10295746 0.13783309 0.14494102 0.23128313 0.20518567 -0.23386197 0.12959413
0.08931253 -0.016112983 0.34584397 0.047312934 -0.020418648 -0.1822254 0.21903324 -0.11968557
0.16112784 0.2669408 -0.17271693 0.1272121 -0.1505213 0.18534155 -0.017387783 0.18339197
0.09373685 -0.1910307 0.07182454 0.06820182 0.039658498 -0.05684157 0.06566065 -0.10598563
0.07273958 -0.16831563 0.15332536 0.20433612 0.05312726 0.024903532 -0.08628172 0.06559519
-0.108215645 0.0049585085 -0.17028065 -0.07077075 -0.11537283 -0.041664578 0.2386315 0.16205625
-0.1135542 -0.004360668 0.2343338 0.09152163 0.099817626 0.08781764 0.10426069 0.12413197
-0.0370006 -0.30190375 0.123909876 -0.09536673 0.080321044 0.031167485 0.23005548 -0.11075922
0.08980154 0.11047253 0.067854844 0.16919313 -0.08921215 0.033013474 0.04315802 0.019482639
-0.1102095 0.10307025 0.10991747 0.25354105 0.17853244 0.035545528 -0.012337225 0.08488512
0.116513215 0.1404017 0.15468833 -0.073698886 0.18604714 -0.031747 -0.03989763 -0.08365803
-0.15442325 -0.151781 0.06544286 -0.09511943 0.27817315 0.0039278595 -0.11142234 0.11469536
0.14731573 0.04884515 0.13995916 0.15103959 -0.0014727409 -0.09823802 0.1980974 0.005070843
0.2695155 0.14687727 0.057024628 0.021725077 0.26332822 -0.19437584 -0.116500035 0.13249826
0.19832914 -0.11609705 -0.04338525 -0.1742113 -0.10122532 0.001511836 0.15474291 0.08485776
0.04286788 -0.13535216 0.2649896 0.070344925 -0.074807204 -0.010939854 -0.11494447 0.2146507
-0.18542631 -0.11290407 0.052458387 0.029120492 -0.0529578 0.09344506 0.083954446 -0.28240493
0.14145768 0.062275957 0.1646665 0.0320427 -0.04841474 -0.11832596 0.18589677 0.11289403

layer2.weight f4 [10, 200]
00000000: 2a1a a9bc be52 42be ac9e 32bd e001 72be
00000010: 3f18 2dbe f73f 1d3c 91ca c83d 1d5c 85be
00000020: cb0f 333e 5f36 923d 7f60 70bd 0cb4 443d
00000030: 26ae 2ebd db6d 7e3c 76db 873d b69e c2bd
00000040: 915b 823d 7066 18bd 5dae 0abd 5757 053e
00000050: 950b 44be ec62 13bd 16d7 003e 14b6 e43c
00000060: 043f 90bd e41e 293e 9ff3 023d 82ec ff3d
00000070: 51fe cb3d 1fa8 2ebe 984d 1abe cca9 b6bd
00000080: 213c 4ebe 56ad 10be d736 cc3d fb4a b73d
00000090: be00 d9bd 167d b7bd 6114 54be 9972 09be
000000a0: be08 763d b48f 72be 3f48 52bd b951 39be
000000b0: 867d 23bd 580b 1e3e 885a f6bd 2f8c 0ebe
000000c0: 258a 553e 271f 32be a715 21bc edf9 2f3e
000000d0: c1ca 813e 209e c63d abf4 b9bc 4390 113e
000000e0: 9532 223d 5bad 1d3d 9a89 a8bd 4a9d 02be
000000f0: 027b c6bd b86b b1bd 5d60 18be a94b 2c3e
00000100: ead4 2cbe 1f92 11be 8353 363d 8b4d 2abe
00000110: bb61 80be ca59 57be eae3 883d a8f1 003d
00000120: c266 29bd bc64 4c3e ffd2 9d3c c871 d73d
00000130: 394d d23d 488b e43d cd21 a73c 8b7b 523e
00000140: fd22 58bd 31ce 59be d233 3abe e7a2 df3d
00000150: 6923 41be 8a10 22be f6da 5c3e 1ee5 4dbe
00000160: b7f1 483e c176 b83d aebf 0fbe 26b0 dc3d
00000170: 3061 c6bd 3dc7 193e 8e15 ea3d 4f5a 393e
00000180: 8c79 24bd 7d7d 94bc 30af ffbc 6838 013e
00000190: 732b eb3c 32e5 08be 8d90 44be 5a40 cebd
000001a0: 31ce 6d3d 6f44 e4bd 81d3 be3d 8036 a93b
000001b0: 4742 29be f1eb 85be 0dac 183e 2cc8 b53d
000001c0: 7680 4a3c d548 743c ac3a db3d 6f44 f6bd
000001d0: 8686 45be 5bfb 10be dc31 863c b43c 3d3d
000001e0: 8ccd 56be 3f01 663e 4277 f3bd 15c5 2a3e
000001f0: cca6 49bd ee5f 943c f2fb 38be be75 2f3e
00000200: 055d f93d 5ed3 07be 3956 2bbd f729 d4bd
00000210: 6ed8 d5bc 3325 013e 80e6 0bbe 7ecc 08be
00000220: 316b a83d 9265 17bc 6fd7 073e 0b40 1dbe
00000230: 117e 993c a623 f63d 5888 373d c7fb fb3d
00000240: 100d 80be ca1e e23d 6ff3 1cbc d248 31be
00000250: 8ff2 9f3d 14ce 41be 6409 d2bc 8e3b 46be
00000260: 3c3b 233e 208d 343e 80bf 833d 9834 023e
00000270: 01ba 65be 63d2 8e3d 9b51 2bbd 100a 50be
00000280: 8901 043e 219e 213e 6608 5fbe 30dd e2bd
00000290: 7453 ccbd b1b3 19be e425 803c da20 c3bd
000002a0: e8b7 58be 1b35 993d f994 2cbe 9ac9 ec3d
000002b0: 0c74 4bbc 46a3 0c3e dbd4 75be 03ad 51be
000002c0: f66c ff3b f367 2c3e 9974 e93d 2d52 c9bd
000002d0: 7190 fdbd 6ff2 cabd 988c b73d f421 203e
000002e0: 2796 5d3d 838c 063d f0bd 4b3e d83e c93d
000002f0: 3bba 283e e374 273e f3f4 963d 68d3 043d
00000300: 0f07 553d 7b75 f2bd de83 3e3d b091 27be
00000310: 3995 42be a537 b6b9 14e4 49be 52b4 623e
00000320: f661 a83d 96c2 553e 37c4 c83d 1c96 56be
00000330: 9811 fe3d 9ea1 693d d17c 223e 6c55 083e
00000340: e708 1d3e 1b46 cebc c139 34be b6fb a83a
00000350: 45c0 b5bd ee81 68be 4a74 033d 3fc9 a1be
00000360: 75dd 46be b4d1 a6be 023f cebc 1f2d 243e
00000370: b3a5 a4bd 955d 423e 0b25 ba3d f1b0 70be
00000380: 964e 43be 6114 4cbd b245 233e c2db fc3d
00000390: 98cc 6abe 9763 15be 8108 9c3d ee9f 893d
000003a0: 0408 0b3e c148 69be ddf4 b9bc f25a e43c
000003b0: db83 0fbe ab91 3ebe 32f6 273e 90cf 7dbe
000003c0: f672 913d 3d14 463e 6298 933d 7d08 7bbe
000003d0: 12a8 7abe ad01 6fbe 6d8f 5a3e 6592 13be
000003e0: bb8f 063e f8fe 44be 37e3 86be ac34 e5bc
000003f0: 9bb5 253e 414d 84be 7ccd 653c bb22 23be
-0.020642359 -0.18976876 -0.043608353 -0.23633528 -0.1690378 0.00959777 0.098042615 -0.2604684
0.17486493 0.07139277 -0.058685776 0.04802327 -0.04264655 0.015529121 0.06633656 -0.09502928
0.06365121 -0.037207067 -0.033857692 0.13021599 -0.19145043 -0.03598301 0.12582049 0.027918853
-0.07043269 0.1651569 0.031970616 0.12496282 0.099606164 -0.1705632 -0.15068662 -0.08919105
-0.20140125 -0.14128622 0.09971397 0.08949848 -0.10595845 -0.08959405 -0.20710899 -0.13422622
0.06006693 -0.23687631 -0.05133843 -0.18097581 -0.03991463 0.15434015 -0.12028986 -0.13920663
0.20853479 -0.17394696 -0.0098318225 0.17185183 0.2535 0.09698129 -0.022699675 0.14215188
0.03959902 0.038495403 -0.082293704 -0.12755314 -0.09691431 -0.08663124 -0.1488051 0.16825737
-0.16878095 -0.14215897 0.044513237 -0.16631143 -0.25074562 -0.21030346 0.06684096 0.03148046
-0.041357763 0.19960302 0.01926565 0.10519749 0.10268635 0.11159378 0.02040186 0.2055494
-0.052767742 -0.21270062 -0.1818383 0.10919743 -0.18861164 -0.15826622 0.21567902 -0.20106933
0.19623457 0.090070255 -0.14037964 0.10775785 -0.09686506 0.1501741 0.114298925 0.18100856
-0.04015498 -0.018126244 -0.031211466 0.12619174 0.028707242 -0.13368681 -0.19195767 -0.10070868
0.058057968 -0.11145865 0.09317685 0.0051639676 -0.16529189 -0.26156572 0.14909382 0.088760704
0.012359729 0.014909943 0.1070455 -0.120247714 -0.19289598 -0.14158385 0.016381197 0.04620047
-0.20976847 0.22461413 -0.11887981 0.16676743 -0.049231336 0.01811215 -0.1806486 0.17134759
0.12175945 -0.13264224 -0.041830275 -0.10359567 -0.026104178 0.12611847 -0.13662148 -0.13359258
0.0822357 -0.009240525 0.13265775 -0.15356462 0.018736871 0.12018518 0.044807762 0.12303882
-0.25009966 0.11041029 -0.0095795235 -0.17312935 0.07809936 -0.18926269 -0.025639243 -0.19358656
0.15940565 0.1763196 0.0643301 0.12715375 -0.22434236 0.06973722 -0.041825872 -0.20316339
0.1289121 0.15782978 -0.21780547 -0.110773444 -0.09976855 -0.15009953 0.015643068 -0.0952775
-0.21163905 0.07480832 -0.16853704 0.1156189 -0.012417804 0.13734159 -0.24006979 -0.20476155
0.0077949716 0.16836528 0.11399192 -0.09830127 -0.12381066 -0.09909522 0.08962363 0.15637952
0.054098275 0.032848846 0.19896674 0.098264396 0.16477291 0.16353182 0.07370939 0.032428175
0.052008685 -0.11838814 0.046512477 -0.16364169 -0.19002236 -0.00034755204 -0.19715911 0.22139099
0.082218096 0.2087501 0.0980305 -0.209557 0.124056995 0.057038896 0.15867926 0.13313836
0.15335427 -0.025179913 -0.17600156 0.0012892399 -0.08874563 -0.22705814 0.032093324 -0.3159885
-0.19420417 -0.32581866 -0.025176529 0.16032837 -0.08039417 0.18981011 0.09089097 -0.23504998
-0.19072947 -0.049824122 0.15944555 0.12346603 -0.22929609 -0.14588772 0.076188095 0.06719957
0.13577276 -0.2278166 -0.022699768 0.027875397 -0.14015143 -0.18610255 0.1640251 -0.2478621
0.07102005 0.19343658 0.07206799 -0.24514957 -0.24478176 -0.23340483 0.21343775 -0.14411314
0.13140766 -0.19237888 -0.26345226 -0.027979217 0.16182558 -0.2584019 0.014026042 -0.15931217

layer2.bias f4 [10]
00000000: 106e 953d a3e4 87bd 8346 c03b bb8c 9d3d
00000010: d0d7 c03c 8a26 a1bc cc56 2fbd e0ab 973d
00000020: 202e 253c d884 b6bc
0.072963834 -0.06635406 0.0058677807 0.07692858 0.023540407 -0.019671697 -0.042807385 0.074058294
0.010081798 -0.022280142
