FashionMNIST_MLP/final_SGD.pth (torch, 637675 bytes, 4 tensors)

layer1.weight f4 [200, 784]
0.022669375 -0.0015472914 -0.0041974033 -0.034469564 -0.004703272 0.031072393 -0.014938256 -0.006352723
-0.014403981 -0.0031282199 0.04662759 0.042506624 0.045459583 0.006464361 0.035485342 0.04156153
0.04364895 0.04554133 0.049661275 0.039074026 0.024686852 0.013872986 -0.0013782295 0.020832438
0.017061334 0.027098753 0.033158906 -0.020453963 -0.009261423 -0.029353254 0.025874332 -0.008528508
0.010110384 0.022425525 -0.011905979 -0.013980461 0.021024266 0.007027186 0.0040753894 -0.0074531147
0.051162586 -0.006610113 0.038642623 0.0156963 -0.0015219315 0.038131125 0.058007177 0.018653093
0.041549217 0.039926726 0.02149371 0.012886359 0.016946096 0.027909707 0.03302289 -0.01624636
0.030214176 0.035405975 -0.0081714615 -0.0012039626 -0.020617437 -0.018275777 -0.01688504 0.018131817
0.010468394 0.034582306 0.03345423 0.045572612 -0.025600936 0.040048946 -0.0077912663 0.03763772
0.012081712 0.038580175 0.025196848 0.011848334 -0.013780317 0.050332572 0.027042042 0.020947738
-0.029487194 0.02068916 0.023148 0.03032372 0.019773632 0.027412266 0.0037850896 -0.029707704
-0.025907643 0.02905952 0.043468058 -0.0055505703 0.03663205 0.030636707 0.029031731 0.030393124
-0.019909212 0.021738643 0.045202512 0.0023676688 0.0059240297 0.03759341 0.049908478 0.0073394664
0.01200638 0.029096803 0.011332342 0.026350165 -0.026044674 0.02261763 0.032731622 -0.021854073
0.033733614 -0.013230026 0.029065296 -0.010666881 0.036460273 0.026589198 -0.0026969626 0.008908067
-0.014881842 0.006160168 0.0039061888 -0.014410184 0.023533361 0.022810115 -0.008878197 -0.01169956
-0.008261005 0.05051755 0.028763441 0.0069962004 -0.0036495586 -0.0123221325 -0.0057146414 0.028556261
0.001821036 0.037790637 -0.017600361 -0.01651558 0.026797887 -0.033211276 0.021604832 0.027711317
-0.01869427 -0.017556556 -0.027979245 0.008457944 -0.037536226 0.024351373 0.027884103 0.014519841
0.0021892185 -0.014585873 0.026850402 0.034559134 -0.010731952 0.04034339 0.029116819 -0.008060674
-0.005441255 0.044959437 -0.002257045 0.010999341 -0.017126776 0.008209285 -0.021013744 -0.014571701
0.016338509 0.030361857 0.020344092 -0.014686084 -0.019617401 0.040030733 0.000117387746 -0.035626672
-0.03369498 -0.011128007 0.00027714233 0.021266317 -0.034682788 0.03393171 0.0022639902 0.038330466
0.007738072 0.041474354 -0.008320721 0.0001389911 0.02113897 0.026080629 0.03729808 0.035625897
4.874887e-05 -0.02661843 -0.0035998772 0.02939716 -0.024678472 -0.030520134 0.021010946 -0.012578925
0.0013608681 0.008135333 -0.014233988 -0.0058545778 -0.004924383 -0.027555626 -0.0064799124 -0.03481853
-0.031711694 0.036260113 0.047154877 0.010525795 0.05100133 0.041462954 -0.0026104026 0.019245164
0.018462814 0.030292988 0.025619173 0.015623244 0.0045252447 0.0018231539 -0.0074668387 -0.030440975
-0.029495971 0.020728795 -0.0110192215 -0.0286386 -0.040749487 -0.011299116 0.0011086039 -0.028316135
-0.02430586 -0.030344928 -0.02877422 -0.021580854 -0.00656583 -0.026687868 0.03473584 0.042582013
-0.0015188736 0.024398066 0.037017178 0.0124288155 -0.011896686 0.050864965 0.048470285 0.032800283
-0.003964553 -0.002865384 -0.00035671002 0.004856367 -0.026374036 -0.00038596004 -0.026942264 0.0053721694
00000000: 20b5 b93c 7cce caba 5f8a 89bb f52f 0dbd
00000010: e81d 9abb 888b fe3c 96bf 74bc 812a d0bb
00000020: adfe 6bbc d202 4dbb 92fc 3e3d 6d1b 2e3d
00000030: d433 3a3d fed2 d33b 1459 113d 6c3c 2a3d
00000040: 3ec9 323d 8c89 3a3d 9f69 4b3d 160c 203d
00000050: 153c ca3c 854b 633c b5a5 b4ba caa8 aa3c
00000060: 36c4 8b3c 34fe dd3c a2d1 073d 128f a7bc
00000070: 39bd 17bc 3c76 f0bc 68f6 d33c 28bb 0bbc
00000080: 06a6 253c bcb5 b73c 4c11 43bc 4e0e 65bc
00000090: 153b ac3c 4f44 e63b d88a 853b 4239 f4bb
000000a0: dc8f 513d a699 d8bb ba47 1e3d 8795 803c
000000b0: 8c7b c7ba 622f 1c3d ef98 6d3d 5fce 983c
000000c0: 832f 2a3d 358a 233d 9413 b03c 4f21 533c
000000d0: 8ad2 8a3c e6a2 e43c 0343 073d 1617 85bc
000000e0: b883 f73c db05 113d 98e1 05bc 48ce 9dba
000000f0: e6e5 a8bc 15b7 95bc 7f52 8abc 2d89 943c
00000100: a083 2b3c 2da6 0d3d 4d07 093d 59aa 3a3d
00000110: 0eb9 d1bc 5d0a 243d e14d ffbb 032a 1a3d
00000120: 5ff2 453c 3f06 1e3d 9f69 ce3c 841f 423c
00000130: d7c6 61bc 8729 4e3d 4687 dd3c 979a ab3c
00000140: 218f f1bc 507c a93c e0a0 bd3c 7369 f83c
00000150: 50fc a13c b08f e03c 440f 783b 925d f3bc
00000160: 443c d4bc 3b0e ee3c 900b 323d 8fe1 b5bb
00000170: 7d0b 163d d5f9 fa3c f4d3 ed3c 00fb f83c
00000180: a518 a3bc 3d15 b23c 4526 393d e42a 1b3b
00000190: 5d1e c23b 8cfb 193d d56c 4c3d e87f f03b
000001a0: 68b6 443c 6b5c ee3c 4aab 393c 4ddc d73c
000001b0: a45b d5bc 9c48 b93c 9811 063d 5007 b3bc
000001c0: 422c 0a3d c0c2 58bc 581a ee3c 24c4 2ebc
000001d0: 5e57 153d 97d1 d93c 86bf 30bb 24f3 113c
000001e0: f8d2 73bc 3cdb c93b f9fe 7f3b b118 6cbc
000001f0: 09c9 c03c 47dc ba3c db75 11bc 83af 3fbc
00000200: 2b59 07bc 7eeb 4e3d 4fa1 eb3c 6240 e53b
00000210: 6f2d 6fbb c5e2 49bc e341 bbbb d2ee e93c
00000220: d4af ee3a 5bca 1a3d a22e 90bc ae4b 87bc
00000230: 3e87 db3c 8c08 08bd 9efc b03c d802 e33c
00000240: ba24 99bc c4d2 8fbc bb34 e5bc 3093 0a3c
00000250: 96bf 19bd 887c c73c 346d e43c a1e4 6d3c
00000260: fe78 0f3b 96f9 6ebc 60f5 db3c e18d 0d3d
00000270: 12d5 2fbc 1c3f 253d 6586 ee3c eb10 04bc
00000280: 8e4c b2bb 6327 383d eeea 13bb 9436 343c
00000290: 744d 8cbc 3d80 063c 0425 acbc 25be 6ebc
000002a0: 56d8 853c 6eb9 f83c a7a8 a63c e79d 70bc
000002b0: acb4 a0bc 44f7 233d 112e f638 46ed 11bd
000002c0: bf03 0abd 3f52 36bc 6a4d 9139 b336 ae3c
000002d0: 8a0f 0ebd fafb 0a3d 745f 143b 6800 1d3d
000002e0: a78f fd3b 03e1 293d a253 08bc 24be 1139
000002f0: a22b ad3c 0ba7 d53c dfc5 183d 76ec 113d
00000300: b377 4c38 e50e dabc ebeb 6bbb 50d2 f03c
00000310: 822a cabc 5c05 fabc 261f ac3c d617 4ebc
00000320: 285f b23a 0f4a 053c ac35 69bc c2d7 bfbb
00000330: b85c a1bb 56bc e1bc 7255 d4bb e09d 0ebd
00000340: 1fe4 01bd 7c85 143d 7925 413d 6274 2c3c
00000350: c5e6 503d 0fd5 293d 4a13 2bbb 09a8 9d3c
00000360: 543f 973c 0029 f83c 4ddf d13c a3f8 7f3c
00000370: 8148 943b e5f6 ee3a 62ac f4bb 5a5f f9bc
00000380: 89a1 f1bc 6fcf a93c f789 34bc 7f9b eabc
00000390: efe8 26bd ed1f 39bc 934e 913a 3df7 e7bc
000003a0: 151d c7bc ed95 f8bc eab7 ebbc 55ca b0bc
000003b0: 2d26 d7bb 84a0 dabc 2b47 0e3d 7a6a 2e3d
000003c0: f114 c7ba 74de c73c 539f 173d 3ba2 4b3c
000003d0: 51ea 42bc c857 503d c788 463d 9759 063d
000003e0: 15e9 81bb 2bc9 3bbb cf04 bbb9 2922 9f3b
000003f0: 5d0e d8bc ae5a cab9 06b6 dcbc 0609 b03b

layer1.bias f4 [200]
-0.02088275 0.014240551 0.021559896 0.032006573 -0.028497845 0.014940746 0.0011798668 -0.014766793
0.03593582 0.05600688 -0.05368516 0.0133213615 -0.05108072 -0.017493328 -0.0037323558 0.017575985
0.024505366 0.043430604 0.021969644 -0.010170326 -0.02672242 0.028057996 0.041067727 0.011151722
0.023415498 -0.032983355 -0.0076718093 0.01372684 0.028461987 0.04190625 0.013397794 -0.017828817
-0.028876167 0.020947458 -0.014463017 -0.026758173 -0.022124896 0.056110222 0.042919908 0.011072939
0.00062693405 -0.0074589984 0.007946595 -0.02652406 -0.014398267 -0.02471597 -0.031852525 -0.0065171598
-0.010014911 -0.035611685 0.028640173 -0.020196013 -0.008120638 0.0058371564 0.0012101923 -0.018909972
-0.022417568 -0.0003771514 0.0353795 -0.015126477 0.048946083 0.0012079442 0.0106807165 0.02005553
0.04482526 -0.0097357975 0.01006699 -0.0031762598 0.037567824 0.0062690414 0.021676261 -0.029735288
-0.039418753 0.027065044 0.022801999 0.020501511 0.038780723 -0.026309427 0.003402501 -0.012992213
-0.02058271 -0.03675308 -0.01957386 0.01680444 -0.014750415 0.006120023 0.04986493 0.033139315
0.0055512087 0.0012708334 0.022961162 0.020594984 0.015676847 0.0029044077 0.023312027 0.012867543
-0.026218496 -0.00031598652 -0.0059664478 0.02009477 0.016415449 0.027472386 0.046060752 0.028108066
0.048132986 0.008091248 0.0013238061 -0.03449506 -0.017292574 0.036763232 -0.0020312173 -0.026656048
0.022297703 -0.042963546 0.015166133 -0.0024808943 0.01355796 -0.019920522 -0.020140853 0.025833968
-0.022579951 0.015436198 0.0043630926 0.02399304 0.013531136 -0.0128810415 -0.020193856 -0.022356754
-0.020045646 -0.032734416 -0.024816824 0.041323513 0.011676459 -0.0046280636 0.004759522 -0.027202377
0.020522043 0.014714669 0.019602092 -0.0034514351 0.008943187 0.04817084 -0.0149003975 -0.0096406955
0.021204237 0.03533073 0.04497273 0.0369458 0.029535362 0.013974258 -0.023520235 -0.04584135
0.010011558 0.012886194 -0.049687553 -0.0062172287 -0.03384283 0.011293083 0.03518203 0.025625376
-0.017644815 0.038773756 0.025431406 0.0031621477 -0.037612017 -0.0043425923 0.032315053 0.014276169
0.011040307 4.2526946e-05 0.045109976 -0.00074165367 -0.018658167 -0.011635742 -0.011803317 -0.0032764983
-0.019073902 0.013863312 0.052274413 -0.0052626673 -0.012522061 -0.018500287 0.00022048508 0.01728387
-0.033380687 -0.034422673 0.053618684 0.0028360332 0.008953535 -0.04019922 0.00031973686 0.0024978435
-0.04614233 0.009855517 -0.0030382671 -0.018781511 -0.0006287814 0.029622579 0.038386192 0.0014174012
00000000: 4d12 abbc 3351 693c 619e b03c 5319 033d
00000010: 5074 e9bc 08ca 743c c3a5 9a3a 6bf0 71bc
00000020: 7031 133d 7867 653d f8e4 5bbd d741 5a3c
00000030: 043a 51bd 2b4e 8fbc 8a9a 74bb 83fb 8f3c
00000040: 7abf c83c 4ae4 313d aff9 b33c 70a1 26bc
00000050: fae8 dabc e2d9 e53c a236 283d b6b5 363c
00000060: dcd1 bf3c 8e19 07bd cd63 fbbb 8ae6 603c
00000070: 1d29 e93c e3a5 2b3d 6c82 5b3c bd0d 92bc
00000080: b68d ecbc 019a ab3c 4af6 6cbc f533 dbbc
00000090: 453f b5bc d5d3 653d c9cc 2f3d 466b 353c
000000a0: d558 243a 9d6a f4bb 6f32 023c fc48 d9bc
000000b0: b5e6 6bbc 2579 cabc cb77 02bd e68d d5bb
000000c0: 9515 24bc 8fdd 11bd cc9e ea3c 1c72 a5bc
000000d0: 6d0c 05bc 9e45 bf3b 519f 9e3a 16e9 9abc
000000e0: 0ca5 b7bc 67bc c5b9 18ea 103d 0bd5 77bc
000000f0: b07b 483d e253 9e3a 2cfe 2e3c 7f4b a43c
00000100: b19a 373d e582 1fbc 04f0 243c cc28 50bb
00000110: b8e0 193d 886c cd3b 6a92 b13c 6b97 f3bc
00000120: 8f75 21bd 83b7 dd3c 42cb ba3c c9f2 a73c
00000130: 89d8 1e3d de86 d7bc 7ffc 5e3b 4add 54bc
00000140: 129d a8bc 668a 16bd 5c59 a0bc 77a9 893c
00000150: baab 71bc 798a c83b 2b3f 4c3d 17bd 073d
00000160: eae6 b53b 1892 a63a 0c19 bc3c d0b6 a83c
00000170: bb6c 803c e057 3e3b ddf8 be3c 63d2 523c
00000180: 2cc8 d6bc feaa a5b9 3182 c3bb c99d a43c
00000190: b179 863c c50d e13c 33aa 3c3d e342 e63c
000001a0: 1827 453d 2791 043c 9083 ad3a b14a 0dbd
000001b0: 28a9 8dbc 0b95 163d 2c1e 05bb c95d dabc
000001c0: aca9 b63c 8bfa 2fbd 5f7b 783c 8096 22bb
000001d0: 3522 5e3c 5d30 a3bc 6efe a4bc c2a1 d33c
000001e0: 97f9 b8bc 1be8 7c3c 46f8 8e3b 0d8d c43c
000001f0: b3b1 5d3c 010b 53bc 966d a5bc 8325 b7bc
00000200: c436 a4bc 8614 06bd a74c cbbc d842 293d
00000210: 9e4e 3f3c 03a7 97bb c4f5 9b3b 85d7 debc
00000220: d81d a83c cc15 713c 9194 a03c 7931 62bb
00000230: 7286 123c c94e 453d cc20 74bc 02f4 1dbc
00000240: 82b4 ad3c f5b6 103d 5335 383d 7b54 173d
00000250: 25f4 f13c 49f4 643c 82ad c0bc 24c4 3bbd
00000260: 8507 243c 9d20 533c 2d85 4bbd e5b9 cbbb
00000270: c89e 0abd a006 393c 081b 103d 4fec d13c
00000280: dc8b 90bc 3bd1 1e3d 8655 d03c 093c 4f3b
00000290: 0f0f 1abd 4e4c 8ebb ca5c 043d 98e6 693c
000002a0: 67e2 343c f65e 3238 3dc5 383d 896b 42ba
000002b0: 03d9 98bc d7a3 3ebc b362 41bc 85ba 56bb
000002c0: df40 9cbc f222 633c b21d 563d 7472 acbb
000002d0: 5529 4dbc ea8d 97bc 0332 6739 e796 8d3c
000002e0: 30ba 08bd cafe 0cbd 449f 5b3d bedc 393b
000002f0: d9b1 123c f0a7 24bd 5ba2 a739 dcb2 233b
00000300: bdff 3cbd 0979 213c aa1d 47bb afdb 99bc
00000310: ced4 24ba 0dab f23c d73a 1d3d 18c8 b93a

layer2.weight f4 [10, 200]
0.047464874 -0.073728114 0.21717203 0.029220048 0.058473088 -0.10946074 -0.18492539 -0.110527776
-0.0302395 0.03657672 -0.2218624 0.0068749627 -0.19968036 -0.27319506 -0.19560711 -0.12017736
-0.014730711 0.11632706 -0.22149889 0.16074292 -0.17991965 0.07596466 -0.16574316 -0.03243091
0.10338333 0.20639756 0.06943031 -0.15462118 -0.13515925 0.16117808 0.11850121 0.05902505
0.042629458 0.12919188 0.16364953 0.10153094 -0.004912271 0.03899296 -0.029366164 -0.1105055
0.06386286 -0.07432728 -0.062581465 0.19926989 0.1071842 0.15484278 -0.12948857 0.005146667
0.17573985 0.025220275 0.030861393 -0.1883381 0.110325 0.16805054 0.01976659 -0.22156313
0.21861288 -0.093495876 -0.023601113 -0.17087173 0.15957987 0.030946452 0.070388526 -0.13968624
0.2263068 -0.2321632 -0.12787874 -0.15243864 -0.020090966 0.13731101 -0.120265946 0.23294015
-0.10040931 -0.059059568 0.059807494 0.03486377 -0.24372648 -0.19509931 -0.051211324 0.20555352
-0.042484585 -0.031460408 -0.08018556 -0.047342114 0.02504656 0.14308542 -0.018384384 0.02972681
-0.027320158 0.054175522 0.074027196 -0.08359431 -0.14132424 0.06924449 -0.04600926 0.030762544
-0.07024169 -0.1319864 0.010421771 -0.056622896 -0.25746456 -0.18613149 -0.12485424 0.2428359
-0.2073986 0.0040448117 -0.15698487 0.10269935 0.07396953 -0.042454995 -0.0550526 -0.08473703
-0.021401431 -0.032374006 0.23435336 -0.055860206 0.06962129 -0.089219734 0.048642837 0.25089222
-0.11132864 0.023020692 0.1356376 -0.007728323 0.17314567 0.07763791 -0.2463046 0.08121033
-0.19555952 0.012535483 0.15436006 -0.0237311 0.22890301 0.087384455 -0.13597162 -0.14144585
0.1928867 0.13547201 0.28997552 0.18682308 0.207201 0.052225098 -0.107141286 -0.15167828
0.24197249 -0.15390638 -0.049715832 0.06042373 -0.073456325 0.10757425 -0.060543504 -0.0058896486
-0.059076678 -0.23014982 0.11218697 -0.031584222 0.20472546 -0.15376233 -0.089408726 0.13514292
-0.12492424 -0.17191578 -0.1549577 0.084326304 -0.12555227 0.07174852 -0.13982625 -0.010003641
-0.09823477 0.090187326 -0.080055796 -0.12964454 0.02792668 0.05065484 0.031446185 -0.22975008
0.21265611 0.24680313 0.10400206 0.074073814 -0.05730133 0.11347735 0.03633567 0.1938503
0.26133892 -0.15267415 0.09372934 -0.12747683 0.054737598 -0.11912748 0.18728802 0.15857789
0.0032922176 0.09995371 0.08384817 -0.10889197 0.07536022 0.05908118 -0.15474886 0.062279146
0.2320744 0.13523339 0.015681043 0.03810116 -0.17279588 -0.16931948 -0.15583801 0.08926734
0.13356124 0.06601338 0.020770807 0.15770957 -0.011178028 -0.03532176 0.16485119 -0.014037515
-0.04701494 0.3453642 -0.14303388 0.02311323 -0.11203073 -0.16495784 0.20348363 -0.0076450165
-0.09109616 0.03417308 -0.047146443 0.15431686 -0.048717335 -0.028148754 0.030140856 -0.112193234
0.052176002 -0.017721238 0.10058773 0.08593606 -0.048984982 0.062050458 0.00876641 -0.15168615
0.055987284 0.29041922 -0.09315586 -0.11991769 0.09744693 0.0028266262 0.23387627 0.06994895
-0.17743328 -0.022586592 -0.013972018 0.2978335 -0.08016459 0.04157628 -0.09152012 -0.19072522
00000000: 876a 423d c4fe 96bd 5862 5e3e e25e ef3c
00000010: 7a81 6f3d f42c e0bd 155d 3dbe 635c e2bd
00000020: d4b8 f7bc 79d1 153d e62f 63be 5e47 e13b
00000030: 0279 4cbe 39e0 8bbe 3b4d 48be 8c1f f6bd
00000040: 1459 71bc e23c ee3d 9bd0 62be cb99 243e
00000050: db3c 38be 5c93 9b3d 93b8 29be 46d6 04bd
00000060: a4ba d33d e259 533e 7a31 8e3d 0455 1ebe
00000070: 3067 0abe de0b 253e c3b0 f23d 40c4 713d
00000080: 3a9c 2e3d e04a 043e be93 273e 74ef cf3d
00000090: 1ef7 a0bb 15b7 1f3d 4f91 f0bc b550 e2bd
000000a0: 88ca 823d e738 98bd b62a 80bd 680d 4c3e
000000b0: 6483 db3d 1b8f 1e3e a798 04be 5fa5 a83b
000000c0: 26f5 333e c09a ce3c 08d1 fc3c b4db 40be
000000d0: 13f2 e13d 7115 2c3e 8bed a13c 72e1 62be
000000e0: 0edc 5f3e c47a bfbd 1f57 c1bc 00f9 2ebe
000000f0: e868 233e 6a83 fd3c dc27 903d e909 0fbe
00000100: f8bc 673e 31bc 6dbe a5f2 02be e018 1cbe
00000110: cf95 a4bc 429b 0c3e fe4d f6bd dd87 6e3e
00000120: 65a3 cdbd 72e8 71bd b4f8 743d 50cd 0e3d
00000130: 6f93 79be 1dc8 47be f7c2 51bd 9f7c 523e
00000140: 5104 2ebd a1dc 00bd 5438 a4bd cee9 41bd
00000150: 722e cd3c fc84 123e d99a 96bc a485 f33c
00000160: 86ce dfbc 27e7 5d3d 929b 973d 7e33 abbd
00000170: 4db7 10be 0ed0 8d3d 3574 3cbd bb01 fc3c
00000180: e0da 8fbd 7127 07be 13c0 2a3c 69ed 67bd
00000190: 65d2 83be 4199 3ebe 94b3 ffbd f9a9 783e
000001a0: 4c60 54be 578a 843b a4c0 20be 0954 d23d
000001b0: 567d 973d 4ae5 2dbd d67e 61bd 9c8a adbd
000001c0: 0e52 afbc 9b9a 04bd 54fa 6f3e accd 64bd
000001d0: 9b95 8e3d d6b8 b6bd b63d 473d f274 803e
000001e0: 4500 e4bd e495 bc3c 95e4 0a3e df3d fdbb
000001f0: 194d 313e a000 9f3d 4637 7cbe 9a51 a63d
00000200: c140 48be a061 4d3c 9010 1e3e b967 c2bc
00000210: 8d65 6a3e 9ff6 b23d 253c 0bbe 2ed7 10be
00000220: 1784 453e 2db9 0a3e ac77 943e 8d4e 3f3e
00000230: 802c 543e fce9 553d e46c dbbd 8d51 1bbe
00000240: a3c7 773e a299 1dbe d4a2 4bbd e07e 773d
00000250: 4570 96bd e34f dc3d 77fc 77bd f4fd c0bb
00000260: 63fa 71bd 65ac 6bbe 48c2 e53d 755e 01bd
00000270: 8da3 513e df73 1dbe ec1b b7bd e862 0a3e
00000280: 48d8 ffbd b10a 30be 3bad 1ebe 45b3 ac3d
00000290: c690 00be e3f0 923d 9d2e 0fbe 50e6 23bc
000002a0: 502f c9bd 22b4 b83d 4bf4 a3bd 8ac1 04be
000002b0: 7ec6 e43c 737b 4f3d b7cd 003d 9b43 6bbe
000002c0: 86c2 593e f6b9 7c3e 08ff d43d 03b4 973d
000002d0: cdb4 6abd d066 e83d b6d4 143d b180 463e
000002e0: 37ce 853e 9d56 1cbe 2bf5 bf3d 4989 02be
000002f0: 8834 603d 1cf9 f3bd 6ec8 3f3e 3e62 223e
00000300: 3fc2 573b 88b4 cc3d 97b8 ab3d c102 dfbd
00000310: 7656 9a3d 1bff 713d 7c76 1ebe 6b18 7f3d
00000320: e9a4 6d3e 9f7a 0a3e 8875 803c f60f 1c3d
00000330: 67f1 30be 1662 2dbe 0094 1fbe ccd1 b63d
00000340: 47c4 083e 0632 873d 8a27 aa3c 9e7e 213e
00000350: 0c24 37bc 8dad 10bd c0ce 283e 9bfd 65bc
00000360: bd92 40bd 94d3 b03e 7977 12be f557 bd3c
00000370: 5e70 e5bd b5ea 28be 035e 503e 0c83 fabb
00000380: a090 babd 12f9 0b3d a11c 41bd 3d05 1e3e
00000390: d48b 47bd 3798 e6bc f5e9 f63c 91c5 e5bd
000003a0: 81b6 553d 212c 91bc f100 ce3d 3fff af3d
000003b0: 7aa4 48bd 9f28 7e3d fda0 0f3c 9d53 1bbe
000003c0: ec52 653d d4b1 943e 80c8 bebd 6897 f5bd
000003d0: 4292 c73d eb3e 393b 437d 6f3e 6541 8f3d
000003e0: 12b1 35be 8407 b9bc e4ea 64bc a27d 983e
000003f0: 552d a4bd e44b 2a3d e76e bbbd 794d 43be

layer2.bias f4 [10]
0.045452524 0.054317523 -0.027258048 0.040229857 0.011213979 0.018864406 0.04382439 0.038073853
0.011287476 -0.011945916
00000000: 6d2c 3a3d 0d7c 5e3d 454c dfbc 10c8 243d
00000010: d6ba 373c 8789 9a3c 3481 333d 54f3 1b3d
00000020: 1bef 383c ceb8 43bc
