FashionMNIST_MLP/final_SGD.pth (torch, 637675 bytes, 4 tensors)

layer1.weight f4 [200, 784]
00000000: d473 65bc 4c45 e1bb a5d3 3a3c 2715 f23b
00000010: 110b 273c 29a8 073c caa9 bebc c021 08bc
00000020: 6cfc afbc 6e66 06bd 4716 423c a9c6 3abc
00000030: 6361 04bd 52df 843c 2eae c93c 6494 80bb
00000040: 898e d4bc 8f7f b23b 1543 80bb cb09 e1bc
00000050: 19f6 f0bc f6bd 923c 49d0 e3bb 9b1a cabc
00000060: 112a 023d e84a ba3c 2492 4dbc fe44 2e3c
00000070: 3cde 813b be4f a43b a00d b9bc 5adb 6b3c
00000080: 4d1a 053d c7d4 6fbc cff0 2e3c 521a 433c
00000090: 83a2 0c3d 86e8 e93b 1d3b 82bc 2704 8c3c
000000a0: 3dcf 96bb 454b fcbc 479f d5bb 62bc e8bb
000000b0: 793b aa3c 3f0c cf3c fcf6 ba39 c7db 523c
000000c0: 18dd f9bc b696 853c c9e1 b1bc 3c54 0bbd
000000d0: f0be 253a 56a6 8d3c 9dc8 803c 2dd6 f83c
000000e0: 681c 013d 9f19 a23c b549 0bbd b2e7 f73b
000000f0: f9e5 d9bc 01ea ebbc 5a21 17bc e68e 0d3d
00000100: caea 673b 9ebb 02bd dcfe 8cbc 6c2b eb3b
00000110: b1ac f2bc 9a0d 20bc c03b 8c3c 33f7 bbbb
00000120: 1346 fc3b 6b60 f2bc e8a1 eabc 62d3 483c
00000130: f3dd fbbc e49c e4ba 0325 d7bb a927 dcbc
00000140: 0caa b53c 0b98 e63b 1344 99bc 2679 0e3d
00000150: 495c 8fbb 571f 3bbc 2f7f 153c 0923 833c
00000160: 3120 013d 11cb 0ebd 785d d13b 717a ae3c
00000170: 0554 1abc 477a e33c 9907 b1bb f0f6 9cbc
00000180: 100b d93c feee cc3c c894 b53c 866f 6abb
00000190: 2df2 313c 86d1 0d3d d651 09bc c1a5 93bc
000001a0: 92da cd3b 89c8 02bd eebb 8cbb 6162 f73c
000001b0: aa2c 513c bf19 73bc 10d4 5a3c a097 0cbc
000001c0: d485 103d 5599 473c 40ee cb3c a3d3 bebc
000001d0: c933 f53c eb48 c6bc b466 d03c d50b 813a
000001e0: 7beb b03c d86f 4ebb dd0b 06bd c093 323c
000001f0: 5e5a 0b3d f1bf ff3c 9711 aaba 85a5 153d
00000200: a9a7 9b3c 51f9 803b fbcf 0d3c 3778 aa3c
00000210: b3b7 303c b434 fd3c fc4d f3bc 7a9a 1c3c
00000220: 5eb7 8abb e87b 823b 5595 82bc 86fe 4a3b
00000230: d21c dbbc 097c 7bbc 6cf3 d2bb dab2 b1bb
00000240: 5410 123c 0d21 993c 5cff 01bc 01d6 0a3d
00000250: 03a7 90bc de26 683b 467f 333c e604 b43b
00000260: b2e9 b63c 5e16 85bc 1e99 8fbc 5e1e 803c
00000270: 876e 69bb 54c5 813c 3dc2 42bc 6ab5 6bb9
00000280: d190 e5bc d946 1fbc 1577 06bc dae9 dfbc
00000290: 23bd f4bc 53b7 92bb 7b3b 7bbc f0c9 0f3c
000002a0: dcf8 1fbc b592 72ba 6196 fa3b 9913 593c
000002b0: f0fe 433c 9173 c1bc e52e f1bb 1657 7abc
000002c0: 6e77 a7bc 27f3 353b 087b d3bc fc91 d7bc
000002d0: 82f7 a83c be49 89bc 8de5 753c 98ca 7c3b
000002e0: f491 febc 00a5 373a a871 c6bc a091 dfbc
000002f0: f476 af3c 21ca debc 6d96 05bd e71c 883c
00000300: dcf0 aabc fed1 49bb a912 3a3b 1445 843c
00000310: 5fca cb3a 0177 0c3d 3100 463c 7cf3 b3bc
00000320: 5533 483c 6bcd 97bb 0eb4 823b 7f8b 43bb
00000330: 9c39 6dbc 58e7 a8bc 4311 94bc edf6 5cbb
00000340: 937f 44bc 7b02 4ebc 1997 c43c 95ba b6bb
00000350: 355a d7bc e594 ff3c d2e1 103d 4660 8f3c
00000360: 04eb fb38 24ef 13bd d9b5 95bc 4e3b 763c
00000370: 29fc 00bd c735 cc3c 705a 323c 065c 873c
00000380: 62c3 e4bc 20ba cfbc 053e 073d 9ed3 063d
00000390: 64f3 2ebc 7338 3ebc 7093 d23c 2f30 023d
000003a0: 6d97 863c 8f90 383b 1f58 413c 34fa b63c
000003b0: 7ade 803c ad9a 85bc 6b53 163c 32da 6fbc
000003c0: 1d92 00bc 0b85 7c3c 17db d73c 6b39 05bd
000003d0: f3d4 083c b890 c73c 3d23 01ba bddc 0ebd
000003e0: 8082 0a3d 16f3 cebc ea1e 043d 922f 763c
000003f0: b773 0e3d 8dd0 fe3c e7ca 72bc 75df df3c
-0.014004666 -0.006874716 0.011402999 0.0073877755 0.0101955095 0.008279839 -0.023274321 -0.008308828
-0.021482669 -0.03281253 0.011846132 -0.011399903 -0.032319438 0.016219769 0.024619188 -0.0039239395
-0.025946872 0.005447335 -0.003914247 -0.02747049 -0.029414224 0.017912846 -0.0069523198 -0.02467089
0.0317784 0.022740796 -0.01254705 0.010636566 0.00396326 0.005014389 -0.022589505 0.014395559
0.032495786 -0.014638132 0.01067753 0.011908131 0.03433467 0.0071383147 -0.015897328 0.017091824
-0.0046023414 -0.03079761 -0.0065192315 -0.007102535 0.020780312 0.025274394 0.00035660702 0.012869782
-0.030500934 0.016307216 -0.021714108 -0.03401588 0.00063227024 0.01729123 0.01572066 0.030375564
0.03152123 0.019787608 -0.03400584 0.007565462 -0.026598917 -0.028798105 -0.00922426 0.034560107
0.0035387748 -0.031917207 -0.01721137 0.007176807 -0.029623361 -0.009768868 0.017118335 -0.0057362556
0.007698783 -0.029586991 -0.028641656 0.012257429 -0.030745482 -0.0017441777 -0.0065656914 -0.02687438
0.022175811 0.007037168 -0.018709218 0.034783505 -0.004375015 -0.011421046 0.009124561 0.016007917
0.03152484 -0.034861628 0.006389316 0.021298619 -0.009419446 0.027768267 -0.005402517 -0.019160718
0.026494533 0.025016304 0.022165671 -0.003577204 0.010860962 0.034623645 -0.008381328 -0.018023374
0.006282159 -0.031929526 -0.004294864 0.030198278 0.012766996 -0.014837681 0.013356224 -0.008581072
0.03528388 0.012182553 0.02489388 -0.023294276 0.02993192 -0.024204692 0.025439598 0.0009845445
0.02159666 -0.003149977 -0.032726157 0.010899484 0.034021728 0.031219454 -0.0012975213 0.036534805
0.019000845 0.003935971 0.008655543 0.020809276 0.010785985 0.03090892 -0.029700272 0.009558314
-0.004233285 0.003982056 -0.015940348 0.0030974462 -0.026747141 -0.0153493965 -0.0064377096 -0.005422932
0.008915026 0.018692518 -0.007934418 0.033895496 -0.017657762 0.0035423557 0.010955637 0.005493748
0.022328231 -0.016246017 -0.017529067 0.01563948 -0.0035618858 0.015841164 -0.01188713 -0.00022478928
-0.028023155 -0.009721481 -0.008207102 -0.027333189 -0.029875344 -0.0044774204 -0.0153340055 0.008776173
-0.009763923 -0.00092534284 0.007647321 0.013249301 0.011962637 -0.023614677 -0.0073603266 -0.015279552
-0.02044269 0.0027763338 -0.025815502 -0.026314728 0.020625833 -0.016758796 0.015008342 0.0038572904
-0.031075455 0.0007005483 -0.024224117 -0.02729112 0.021419026 -0.027195992 -0.03261416 0.016615344
-0.020866804 -0.003079533 0.002839247 0.01614622 0.0015547982 0.03429318 0.012085007 -0.021966688
0.01221927 -0.004632642 0.0039887493 -0.0029837785 -0.014479067 -0.020618126 -0.018074637 -0.0033716515
-0.011993307 -0.012573834 0.02399783 -0.0055764415 -0.026288131 0.031198928 0.03537161 0.017501961
0.00012012388 -0.036116734 -0.018275188 0.015028788 -0.03149048 0.024927987 0.01088582 0.016523372
-0.027925197 -0.025357306 0.03301813 0.032916658 -0.010678146 -0.011610138 0.02570507 0.031784233
0.016429627 0.0028162336 0.011800795 0.022336103 0.015731085 -0.016309107 0.009175162 -0.014639424
-0.007847336 0.015412579 0.026349587 -0.03252546 0.008351552 0.024361 -0.00049262104 -0.03487848
0.03381586 -0.025262397 0.032256044 0.01502599 0.034778323 0.031105304 -0.0148188835 0.027328232

layer1.bias f4 [200]
00000000: a4ac 49bc 70a9 10bd 0b3f 92bb 8a66 5fbb
00000010: aec6 fe3c e285 613a fc4d 71bb 381d 0d3c
00000020: 698a 943c 656c f03c 6016 3c3c 8ce5 56bc
00000030: 4936 c33a ab3b b0bc 1146 e9bc 19e5 8e3c
00000040: d576 55bc ad2f c8bb db49 03bd e7b8 b23c
00000050: 9cd4 63bc 9164 353c d12b c23b 95a1 693b
00000060: da43 00bc 999f e4bc 35cf fd3c 5f24 6fbc
00000070: 9861 d0bc 5761 b1bc f4f3 81bc 93ec 8d3c
00000080: 4d41 d53c a921 8bbb 2cf8 10bd 9bc7 c83b
00000090: d9e9 b5bc 4167 d13c 217b 11bd 98bc 6abc
000000a0: b4ec 943c 1420 c0bc 0172 fb3b f786 40bb
000000b0: de8e 9abc c2b5 3b3c e632 cb3c ee61 c03b
000000c0: 32d0 113c b774 063c 3d3f 98bc 383c ca3c
000000d0: 793b 63bc 3301 073c 487f fd3c fc02 9dbc
000000e0: 8fe7 dbbb 9d09 c8bb 1842 c93c 70ba 1a3c
000000f0: ab4c 85bc 9498 063d b27e 28bc dd9f 9e3c
00000100: 073c 233c 9952 7cbc 8a99 d43c b4b8 f8bc
00000110: a3e3 0a3d f478 1c3a 1ace f6bc 2012 cf3c
00000120: c0ff 97bc aec9 35bb d819 46bc 4873 57bc
00000130: 0128 de3c 785b 8a3c d1a2 93bc e380 543c
00000140: 2dd5 b9bc eb17 8fbc 8a39 57ba 367a 853b
00000150: 5ccb 9d3c ffba f63c f80f 733c 38f6 e0bc
00000160: f8d7 d0bc 0f77 97bc 3279 98bb 103d 1d3c
00000170: 9217 0e3c 9210 9abc 7bf1 923a 4f14 9abc
00000180: a71a fdba b8fb 953c f7ac 183c bdd2 0abd
00000190: 8872 6abc 9376 c1bb fbb1 0b3d 22a0 183c
000001a0: f80b f8bc c1f9 0fbd 2f62 07bc 8f21 ebbc
000001b0: d475 c53c b39d 0dbc a69c 09bc ff5f 623c
000001c0: 7a6e bb3c 70c9 493b a0bb 19bc e116 5fbb
000001d0: aab2 2fbb 1d2e b93c c77b 0abc 74f1 dfbc
000001e0: 5676 8dbc 0dfc 81ba a211 dbbb 3e19 dabc
000001f0: 0272 9539 47b3 15bc 019e 11bd 7866 11bd
00000200: 3413 0e3d fdda 4a3c a6f0 82bb 49ac 753c
00000210: 7885 ed3c 9b7c 923a ecc2 b9bc e456 69bc
00000220: 7731 c13c e28e c3bc 1773 f23b 3513 073d
00000230: 54be 753c 9983 0e3d 7140 62bc df70 ffbb
00000240: c1c7 04bd 67a8 13bc b831 383c 8608 e9bc
00000250: 204f 45bc 928e d23b 2fd4 85bc f0e7 493c
00000260: dc0b ce3a cbf6 353c 1d56 1a3c 7fdf a1bb
00000270: 9bc0 08bd ee57 4c3b c360 cd3b 6fbe 57bc
00000280: 1698 da37 af62 aebc 3d09 a73c 770e 1ebb
00000290: e5ca bebc 295d 803c 4ba4 c83c c445 da3c
000002a0: 8488 c93c f50b ebbb 0065 773a 8595 babc
000002b0: 6f0e 963c 1e90 ccbb 8658 033d 5702 783c
000002c0: e09d 623b 4b37 83bc 49a4 efbc 5fe8 ce3c
000002d0: 0cee 01bd 577e 9ebb ab9b f7bc 77d5 143c
000002e0: be39 bd3c 3729 de3c 7c75 a23a c297 ea3c
000002f0: cbf7 063d 280c 0ebd b923 f63c 9690 a8b9
00000300: c973 04bd fb31 a43c 7cd1 abbb f200 d0bb
00000310: 9ce6 673c c7cc c2bb 70d1 393c 69d3 f0bb
-0.012309227 -0.03531784 -0.0044630817 -0.0034088218 0.031100597 0.0008603019 -0.0036820164 0.008612923
0.018132405 0.029348562 0.011479944 -0.013116252 0.0014893498 -0.021512827 -0.028475793 0.017443227
-0.01302882 -0.006109199 -0.032052856 0.021816684 -0.0139056705 0.01107134 0.0059256335 0.003564929
-0.007828677 -0.027908133 0.030982593 -0.014596074 -0.025437161 -0.02165286 -0.015863396 0.017324721
0.026032114 -0.004245956 -0.035392925 0.0061273105 -0.022206234 0.02556193 -0.035517816 -0.014327191
0.018179275 -0.023452796 0.0076735024 -0.002937732 -0.018866953 0.011456909 0.024804544 0.005871049
0.008899735 0.008206538 -0.018584842 0.024686918 -0.01386916 0.008240032 0.030944481 -0.019166462
-0.0067109535 -0.0061046616 0.024567649 0.009443864 -0.01627191 0.032860354 -0.010284113 0.019363338
0.009963042 -0.015400552 0.02595212 -0.03036151 0.033908498 0.0005968951 -0.030127574 0.025277197
-0.018554568 -0.0027738619 -0.012091123 -0.013150044 0.027118685 0.016889319 -0.018021973 0.012970182
-0.022684658 -0.01746746 -0.0008210173 0.0040734066 0.019262008 0.030118464 0.01483535 -0.027461156
-0.025493607 -0.018489389 -0.0046531195 0.009597078 0.008672612 -0.01880673 0.0011210883 -0.018808512
-0.0019310311 0.018308505 0.009318582 -0.033892382 -0.014309533 -0.0059040277 0.034105282 0.009315522
-0.030279145 -0.035150293 -0.008263155 -0.028702525 0.024104036 -0.008643555 -0.008399164 0.013816833
0.022879828 0.0030790232 -0.009383112 -0.0034040737 -0.0026809373 0.022604996 -0.008452362 -0.027336814
-0.017268341 -0.0009917036 -0.0066854516 -0.026623365 0.00028504437 -0.009136981 -0.035551075 -0.035498112
0.034686282 0.012381312 -0.0039959727 0.014994689 0.028994307 0.0011176051 -0.022675954 -0.014241908
0.023583157 -0.023871843 0.0073989737 0.0329773 0.014998991 0.03479347 -0.013809309 -0.0077954377
-0.032417063 -0.009012318 0.011242323 -0.028446447 -0.012042791 0.006425687 -0.016336529 0.012323365
0.0015720087 0.011106203 0.009419945 -0.004939973 -0.033386808 0.003118034 0.0062676384 -0.0131679615
2.6058446e-05 -0.02128729 0.020390147 -0.0024117508 -0.023290107 0.015669422 0.024492403 0.026644595
0.024601229 -0.0071730562 0.00094373524 -0.022776375 0.01831743 -0.006242766 0.032066844 0.015137277
0.0034578964 -0.016017577 -0.029253142 0.025257288 -0.03172116 -0.004836838 -0.030225595 0.009084097
0.023098823 0.027119262 0.0012394632 0.028636817 0.032951158 -0.03467956 0.03004633 -0.00032151182
-0.032336984 0.020043364 -0.0052434783 -0.006347769 0.014154103 -0.0059448215 0.011341438 -0.007349421

layer2.weight f4 [10, 200]
00000000: be7e 413b 94b4 45bd 6e82 78bc 2855 90bd
00000010: cfce 8dbd fee3 d1bc 9cd7 cb3b 22a9 fbbc
00000020: 4cbb 7b3d 1db5 a03b 6fd3 4bbd 3ef9 c73c
00000030: 50c9 aebc 57eb 13bc 2969 253d c5ae 24bd
00000040: a90d 033d 4766 b33b 2339 b9bc c572 753d
00000050: 9617 99bd f801 37bb 34d1 8e3d 00b8 973c
00000060: 63e9 0ebc 21b8 803d 7cca 9fbb 9fc7 8f3d
00000070: 1ef4 e33c fe96 5bbd cde7 5abd 1337 943a
00000080: c20d 29bd 0a23 21bd 490a 1b3c 8778 283d
00000090: d2d8 71bd e571 d8bc 8fc7 74bd 3102 ccbc
000000a0: 9c67 bebc 9df6 14bd 1a20 e03a 1d41 60bd
000000b0: f779 2dbd 9c37 783d 63f1 d2bc 2aa5 7fbd
000000c0: ee90 923d 9911 15bd 0368 15bc 7e21 5d3d
000000d0: f1b4 3b3d 239b 293b 67ad 99bb 0378 563d
000000e0: c440 f33b dc15 ca3c dcf7 ddbc 62f0 c4bc
000000f0: 02eb bfbc b03f 74bd 2d45 6bbd a1fe 803d
00000100: a229 4abd a720 4dbd 168c 7fba 4892 53bd
00000110: 1af3 74bd 069b 49bd 5871 de3c 657a cd3b
00000120: 14e4 d33c f0b4 633d c7c4 443a 6ec5 b93c
00000130: edef 833d cb0c 633d f35b 913c ca0e 8b3d
00000140: b74c 013d 3493 71bd fd99 1bbd d2ca 313d
00000150: eecf 8dbd 124f 57bd 50b2 383d 3f89 40bd
00000160: 67e8 4e3d 3c99 2f3d 149d 0dbd a1ff 1d3d
00000170: 6b3c f4bc 4ac5 223d 67e1 093d 8fba 933d
00000180: 5e0d 32bd d13f cd3c 72d8 e7bb e17e 753d
00000190: 1069 5dbb 1f92 5fbd b5cb 72bd 7f4f 81bd
000001a0: b689 8d3c 3f18 82bd 7691 233c 4962 41bb
000001b0: 8860 09bd c247 83bd 4dd7 8b3d 0af5 463d
000001c0: 14ce 54bc 2b1d 0db9 e186 b53c 6eff 4abd
000001d0: 3791 19bc 45d3 a5bc 33f8 a3bc caed 4d3c
000001e0: f09c 94bd ad83 2d3d d2b9 3fbc ac56 0f3d
000001f0: 3a00 f9bc b540 d53c aadd 02bd a47c 863d
00000200: 43b0 8e3d a878 79bd 1dea 85bc 1418 b5bc
00000210: 7e32 9bbc 228f 0f3d 821d 0fbd a486 14bd
00000220: 9656 533c 15c6 3b3c 1e5f b23c 3407 67bd
00000230: 4661 623b c993 013d 1b1c 04bc 9509 013d
00000240: a2b3 9abd 38ab 453d 67c3 f0bb a235 8ebd
00000250: 0abc 973c 31eb 4abd 2cac b23c c897 86bd
00000260: bec5 843d b501 8b3d 2543 8dbb e1da 403d
00000270: 75e7 12bd 38ce 733c 8342 31bd 2b42 6bbd
00000280: 6987 313d 6cf8 533d 9ee9 5bbd 5085 55bd
00000290: e7a2 f9bc e845 6cbd 779b 493c d8c5 1abd
000002a0: 9b06 44bd 522d 2b3d c318 08bd bbf8 9e3c
000002b0: 5f56 673c d64c 7e3d a8ee 6cbd 1fed 193c
000002c0: e3a0 cabc 1c56 a13d 05c7 ac3c e6e5 6dbd
000002d0: 089c 11bd 101a 1fbd 6aae a73c 851e 3b3d
000002e0: d860 903c 08dc 683c 1694 803d eecc e93c
000002f0: d356 7c3d 5d6e bf3c ad02 0dbc dd80 aa3b
00000300: a370 923c a5a4 4abd 2a65 093d e3f8 8138
00000310: 7489 7ebd e57d d8bb 5696 68bc 5e89 913d
00000320: 552c 5c3d b9b1 673d 4306 343c 4944 1ebd
00000330: 9126 133d bbbe 103c a779 403d 3215 8a3c
00000340: 90b3 553d 9a92 fabc 6752 18bd 7060 cd3c
00000350: 1183 c3bc e02e 5dbd af73 d23b fd00 9bbd
00000360: f213 a9bc 32c3 41bd 0e63 b93c 9c0c 843d
00000370: 5870 4f3d d9b0 253d 6ff8 3f3d f831 4dbd
00000380: a607 43bd 7630 da3b 9320 273d e760 e53c
00000390: b10a eebc c2a2 9b3c 3daf 8e3c 99e6 e83a
000003a0: b0ce 283d 698d 30bd 751f 693b d02e 82bb
000003b0: eaf7 1cbd 16c7 72bd 40de 873d e45d 57bd
000003c0: be39 c93c 7ad0 813d c4c2 303c d364 adbd
000003d0: 6430 87bd c0a9 2bbd bd2d 8e3d 94c9 013c
000003e0: 7bae 3e3d fa9a 06bd 9f19 3ebd dc12 ac3c
000003f0: 217c 663d 6842 9ebd 7039 f6bb 06fc 3fbd
0.0029525007 -0.048267916 -0.015167816 -0.07047492 -0.06924211 -0.02562141 0.006220771 -0.030720297
0.061457917 0.004904403 -0.049762186 0.02441084 -0.021336228 -0.009028277 0.04038349 -0.040205736
0.03199545 0.005474839 -0.022610253 0.059923906 -0.07475202 -0.0027924757 0.06973496 0.018520355
-0.008722636 0.0628512 -0.004876433 0.070204966 0.027826365 -0.053610794 -0.05344372 0.0011307917
-0.041272886 -0.039340056 0.009462901 0.04113057 -0.059044667 -0.026421497 -0.059760626 -0.024903389
-0.023242764 -0.036368 0.0017099411 -0.054749597 -0.042352643 0.06059991 -0.025749868 -0.062413372
0.071565494 -0.036393736 -0.009119037 0.05398702 0.045826856 0.0025879822 -0.0046898606 0.052360546
0.007423492 0.024668626 -0.027095728 -0.024040405 -0.02342749 -0.05963105 -0.057439018 0.062985666
-0.04935611 -0.050079968 -0.00097483525 -0.051653177 -0.059802152 -0.049220107 0.027153656 0.006270694
0.025865592 0.055592477 0.0007506129 0.02267715 0.064422466 0.055432122 0.01774404 0.0678993
0.0315673 -0.058978274 -0.03798865 0.043406315 -0.06924425 -0.05256564 0.045091927 -0.047005888
0.050514605 0.042870745 -0.03457363 0.038573865 -0.029813966 0.03973893 0.033662226 0.072133176
-0.04346978 0.025054844 -0.007075363 0.059935454 -0.0033784546 -0.05458271 -0.0592763 -0.06313991
0.01727758 -0.06352281 0.009983411 -0.0029508045 -0.033539325 -0.06410171 0.06828175 0.04857353
-0.012988586 -0.00013457674 0.022159042 -0.049560003 -0.009373001 -0.020242343 -0.020015812 0.0125689
-0.07256496 0.042361904 -0.011702018 0.034994766 -0.030395616 0.026031831 -0.031949677 0.06566742
0.06967213 -0.060906082 -0.016346985 -0.022106208 -0.018944975 0.03504861 -0.03494025 -0.036261216
0.012899062 0.011460801 0.021773871 -0.056403354 0.0034542843 0.03163508 -0.0080633415 0.03150328
-0.075537935 0.04825899 -0.0073475125 -0.069438234 0.018522281 -0.049540702 0.021810614 -0.06571919
0.06483029 0.06787435 -0.004310983 0.04708374 -0.035865266 0.014880709 -0.04327632 -0.05743615
0.043342028 0.051750585 -0.05368959 -0.05212909 -0.030473186 -0.057683855 0.012305132 -0.037786335
-0.047857862 0.041791268 -0.03322674 0.019405713 0.014119714 0.062084995 -0.057844788 0.009394913
-0.02473492 0.07877752 0.021090994 -0.058080576 -0.035549194 -0.038843215 0.02046891 0.045683403
0.017624304 0.014212616 0.06278245 0.0285401 0.06160624 0.023368055 -0.008606595 0.00520335
0.017875975 -0.049473424 0.033543743 6.197558e-05 -0.062142804 -0.0066068047 -0.014195999 0.07106279
0.053753216 0.056565974 0.010987821 -0.03863934 0.03592545 0.008834536 0.046991017 0.01685581
0.052173197 -0.030587483 -0.03718796 0.025070399 -0.023866208 -0.05399978 0.006422482 -0.07568548
-0.020639393 -0.047305293 0.02263024 0.064477175 0.05064425 0.04045186 0.046867784 -0.050096482
-0.047614716 0.006658609 0.04080255 0.028000308 -0.029057832 0.018998507 0.017417544 0.0017768919
0.041212738 -0.04310361 0.0035571728 -0.0039728656 -0.038322367 -0.059271894 0.06634188 -0.052579775
0.024563666 0.06338592 0.010788623 -0.08466496 -0.06601027 -0.041909933 0.06942318 0.007921595
0.046553116 -0.03286264 -0.046411153 0.021005087 0.056270722 -0.0772751 -0.0075141713 -0.046871208

layer2.bias f4 [10]
00000000: 6eb5 813d 96c5 52bd e0a3 27bb 8e90 9c3d
00000010: 21b5 713c a5e0 08bc 44c8 3dbd 6675 923d
00000020: b7cf b73a 3642 e0bb
0.06333433 -0.051457964 -0.0025579855 0.07644759 0.014752657 -0.008354341 -0.046333566 0.07151298
0.0014023696 -0.0068438305
