FashionMNIST_CNN/final_model.pth (torch, 437367 bytes, 8 tensors)

conv1.weight f4 [16, 1, 3, 3]
0	0x3f58d373	0.84697646
1	0x3f3cd00a	0.7375494
2	0x3ed167fe	0.40899652
3	0xbdfe5d50	-0.12420142
4	0x3e5bc9e8	0.2146374
5	0x3e5dea68	0.2167145
6	0xbf90ddc5	-1.1317679
7	0xbed0c256	-0.40773267
8	0xbeabfd1b	-0.33591542
9	0xbf091a20	-0.5355549
10	0xbf009c99	-0.5023895
11	0x3f1a614e	0.60304725
12	0xbee5a2b9	-0.4485071
13	0xbebdec3f	-0.37094304
14	0x3eef0be5	0.46688762
15	0x3e5b830a	0.21436706
16	0x3e8747d9	0.26422003
17	0x3ec8a027	0.39184687
18	0xbe57794d	-0.21042366
19	0x3f938301	1.1524354
20	0xbef7c207	-0.4839022
21	0x3e827b4e	0.254847
22	0x3f1fdffd	0.62451154
23	0xbe984b1c	-0.29744804
24	0x3e7fb22e	0.24970314
25	0x3c6351ee	0.013874514
26	0xbf63f67b	-0.89047974
27	0x3d4abbb0	0.0494954
28	0x3e974e88	0.29552102
29	0x3e21a820	0.15786791
30	0xbe1fb52b	-0.15596454
31	0x3d54b55b	0.051930767
32	0x3eb04290	0.34425783
33	0x3e0237e1	0.12716629
34	0x3e6d0698	0.23147047
35	0x3e8e3f70	0.27782774
36	0xbe85ea03	-0.261551
37	0x3e8eaf97	0.2786834
38	0x3cfc1780	0.030772924
39	0x3d1ad056	0.03779634
40	0x3dac196e	0.08403288
41	0xbf0a5c24	-0.54046845
42	0x3ecbb756	0.39788312
43	0x3f11f93e	0.5702094
44	0xbdaaa538	-0.08332294
45	0xbdd8ef8d	-0.10592566
46	0xbdea3168	-0.11435205
47	0x3f08e4d9	0.53474194
48	0x3b93cad1	0.0045102616
49	0x3e7654f7	0.24055849
50	0xbe65fc98	-0.22459638
51	0x3ecd4e06	0.4009859
52	0x3f05ac72	0.52216256
53	0xbf09d999	-0.5384765
54	0x3f04bc02	0.5184938
55	0xbd90fb99	-0.070792384
56	0xbf2e5daf	-0.681117
57	0x3f2041a0	0.62600136
58	0xbd6e2b5d	-0.058146823
59	0xbf4a3506	-0.7898716
60	0x3f12dfba	0.5737263
61	0x3dd91382	0.10599424
62	0xbeade088	-0.33960366
63	0xbed7c86f	-0.42145106
64	0xbf08f5eb	-0.5350024
65	0xbe88f208	-0.26747155
66	0x3ef41594	0.47672713
67	0x3e96df38	0.29467177
68	0x3f2f9a94	0.6859524
69	0x3ec795a6	0.3898136
70	0xbe22707b	-0.1586322
71	0x3e876f96	0.2645232
72	0x3e7ead6b	0.24870841
73	0x3d09fa5f	0.033686038
74	0xbf08e7fe	-0.5347899
75	0x3f09be00	0.5380554
76	0xbdfc62a3	-0.12323501
77	0xbecc1bef	-0.39865062
78	0xbf5f317d	-0.8718489
79	0x3f4136df	0.7547435
80	0x3f0e33a7	0.55547565
81	0xbcc770d6	-0.024345797
82	0x3f1b05f1	0.6055594
83	0x3eaf6456	0.34256238
84	0xbe75225a	-0.23938885
85	0xbd97fabd	-0.074208714
86	0xbea11e19	-0.31468275
87	0x3f006298	0.5015044
88	0x3dba9c72	0.09111871
89	0x3eb3b3f4	0.3509823
90	0xbfb1aac3	-1.3880237
91	0xc034d93c	-2.825759
92	0xbf480b05	-0.78141814
93	0x3f00b5fa	0.50277674
94	0xbe452c18	-0.19255102
95	0x3e952534	0.29129946
96	0x3e725f62	0.23669198
97	0x3ea87f11	0.32909444
98	0x3f1dcf1c	0.6164415
99	0xbf3ef7be	-0.74596775
100	0x3f65a86d	0.8971012
101	0x3e553b7b	0.20823471
102	0xbe1f97f2	-0.15585306
103	0x3e6b4fe5	0.22979696
104	0x3eed8e60	0.46397686
105	0xbf2714bd	-0.6526602
106	0x3e5b3ba5	0.21409471
107	0x3e055116	0.13019213
108	0xbeea2d16	-0.45737523
109	0xbe92b03a	-0.28650075
110	0x3cb72552	0.022356663
111	0x3e6bd114	0.23028976
112	0x3e640637	0.22267996
113	0x3e8cecf6	0.27524537
114	0x3e9fa73a	0.3118227
115	0x3e5588f4	0.20853025
116	0xbe56537f	-0.20930289
117	0x3f2c82be	0.67386997
118	0xbebdb94b	-0.3705543
119	0xbf16ed0c	-0.58955455
120	0x3f131d09	0.5746618
121	0xbd94cc40	-0.0726552
122	0xbe723f4d	-0.2365696
123	0x3e5c55d6	0.21517119
124	0x3d830656	0.06397693
125	0xbe3fd85d	-0.1873488
126	0xbdee06bc	-0.11622378
127	0x3e4b1ece	0.1983597
128	0x3f2ac789	0.66710716
129	0xbfe611a4	-1.7974133
130	0xc0067d60	-2.1014023
131	0xbf3a715f	-0.7282924
132	0xbfc20435	-1.5157534
133	0xc038f9e5	-2.8902524
134	0xbf103cb5	-0.5634263
135	0xbf5e70d0	-0.8689089
136	0xbd74fe73	-0.059812974
137	0x3f37c91c	0.71791244
138	0x3e9de55e	0.30839056
139	0x3eb1e13e	0.3474216
140	0x3ea76147	0.32691404
141	0x3ed466cd	0.4148468
142	0xbf15ff84	-0.5859301
143	0xbf0ce415	-0.55035526

conv1.bias f4 [16]
0	0xbd797edd	-0.060912002
1	0xbcc3a231	-0.02388105
2	0xbd4d2047	-0.05007961
3	0x3d5f8223	0.054567467
4	0xbe7e0f79	-0.2481059
5	0xbe3d119b	-0.18463747
6	0x3e48df73	0.19616489
7	0xbec6e64b	-0.38847575
8	0xbdac7469	-0.08420641
9	0xbef36aac	-0.47542322
10	0x3e9a5a28	0.3014691
11	0xbd0534aa	-0.032520927
12	0xbd9ac470	-0.07556999
13	0xbd71f38e	-0.059070162
14	0x3f38d6c8	0.7220273
15	0xbcc5bcb6	-0.024137836

conv2.weight f4 [32, 16, 3, 3]
0	0x3f2dcdc4	0.678921
1	0x3f1fdc95	0.62445956
2	0xbf039e22	-0.51413167
3	0x3e728497	0.23683392
4	0x3f5cd9fc	0.8627012
5	0xbf2a1381	-0.6643601
6	0xbee26d6a	-0.442241
7	0x3e87043e	0.26370424
8	0x3dc9b329	0.09848625
9	0xbdea9655	-0.11454455
10	0xbf117ff0	-0.5683584
11	0xbf479bd8	-0.77972174
12	0x3c95893a	0.018253911
13	0xbe8cdfd0	-0.27514505
14	0xbf7cebd8	-0.9879737
15	0x3f1c8254	0.61136365
16	0x3efec2ef	0.49758098
17	0xbf951748	-1.164773
18	0xbe4cf135	-0.20013888
19	0x3ec453bc	0.38345134
20	0xbe56351a	-0.20918694
21	0xbeb3dbe4	-0.351287
22	0xbe512fb6	-0.20428357
23	0xbebf70bf	-0.37390706
24	0xbbf0259a	-0.007328701
25	0xbe864e5f	-0.26231667
26	0x3d1f33d8	0.0388678
27	0x3e8a2bb7	0.26986477
28	0x3de9932a	0.114050224
29	0xbe588060	-0.21142721
30	0x3be0f789	0.006865446
31	0x3e8face1	0.28061584
32	0x3b62ff63	0.0034637086
33	0xbe98cba8	-0.29842877
34	0x3dd77141	0.10519648
35	0x3da75fd7	0.08172577
36	0xbf1326ee	-0.57481277
37	0x3dd6e383	0.10492613
38	0xbf1f1d07	-0.6215367
39	0xbe24016c	-0.16016167
40	0x3d677195	0.056504805
41	0xbda6fd8b	-0.08153828
42	0x3e4366bc	0.19082159
43	0x3bac0470	0.0052495524
44	0xbe4b48a1	-0.19851924
45	0xbc59f18a	-0.013302216
46	0x3e431f29	0.19054855
47	0xbe1df006	-0.15423593
48	0x3a8acdac	0.001058986
49	0xbbc453d8	-0.0059914403
50	0x3cd22144	0.025650628
51	0xbdcc1aea	-0.09966071
52	0xbdfb432d	-0.12268672
53	0x3d8e9025	0.06961087
54	0xbf164e0d	-0.58712846
55	0x3eac06b2	0.33598858
56	0xbd625513	-0.055256914
57	0x3ebacdd3	0.36485156
58	0xbc7f1afe	-0.0155704
59	0xbdfe2b74	-0.12410632
60	0x3f48138a	0.78154814
61	0xbee86bea	-0.45394832
62	0xbcc8e70b	-0.024524232
63	0x3e8b504d	0.27209702
64	0xbe583c24	-0.21116692
65	0xbe0e4f52	-0.13897446
66	0xbc746fd5	-0.014919241
67	0x3c760f9a	0.015018368
68	0x3ca8fdd0	0.02062884
69	0x3e430dc9	0.19048227
70	0xbeb5a81d	-0.35479823
71	0xbf11916a	-0.5686251
72	0xbd98a0bd	-0.074525334
73	0x3f258b97	0.6466612
74	0xbe0958f5	-0.1341284
75	0xbe668546	-0.22511777
76	0x3f5d1bcc	0.8637054
77	0x3d861075	0.06546108
78	0xbd1eb2c9	-0.03874472
79	0xbebf0257	-0.37306473
80	0x3e53e1c3	0.2069159
81	0x3e3e8eeb	0.18609206
82	0x3dda091c	0.10646269
83	0xbe9a56d2	-0.30144364
84	0x3c8a9cd0	0.016920477
85	0x3e8bdc48	0.273165
86	0x3e197435	0.14985736
87	0xbe872677	-0.26396534
88	0x3d8749e0	0.066058874
89	0x3dc86dfd	0.097866036
90	0xbe87273c	-0.2639712
91	0xbefea397	-0.49734184
92	0xbf018998	-0.50600576
93	0x3e5e9c94	0.21739417
94	0xbe10d04a	-0.14141956
95	0xbdca78f5	-0.09886352
96	0x3f637e58	0.8886466
97	0x3c726862	0.014795395
98	0xbedfc58c	-0.43705404
99	0x3e4d9ccc	0.20079345
100	0x3e2d2856	0.16909918
101	0xbe70186b	-0.23446815
102	0xbe672d79	-0.2257594
103	0x3eaa017c	0.33204257
104	0xbe4607f1	-0.19338967
105	0xbeb76c69	-0.35824898
106	0x3ec51c86	0.38498324
107	0x3caeecb2	0.0213531
108	0x3ea2d98f	0.3180661
109	0x3e8758e4	0.26435006
110	0xbdcdc762	-0.10047795
111	0xbe18d1e5	-0.14923818
112	0x3b973c40	0.0046153367
113	0x3db40b93	0.0879127
114	0xbe350f6c	-0.17681664
115	0xbdcc76af	-0.099835746
116	0xbe1784d5	-0.14796765
117	0xbf1575bc	-0.58382773
118	0x3efc820f	0.49317977
119	0x3e3909ce	0.18070146
120	0x3eb4736c	0.3524431
121	0x3e9c2f81	0.30504993
122	0x3e1666be	0.1468763
123	0x3f48dbae	0.78460205
124	0xbe9ac1d9	-0.3022602
125	0x3e3ac094	0.18237525
126	0x3de283a1	0.110602625
127	0xbeb65080	-0.35608292
128	0xbcc244d4	-0.02371446
129	0x3f239664	0.6390135
130	0xbdfe0361	-0.12402988
131	0xbf36265a	-0.7115227
132	0x3eb62106	0.3557207
133	0x3ebaba2f	0.36470172
134	0xbf51cc7e	-0.81952655
135	0x3f8630d9	1.0483657
136	0xbf0c0376	-0.5469278
137	0xbef0dd14	-0.4704367
138	0x3e6d00ae	0.2314479
139	0x3ebb4b0a	0.36580688
140	0xbf34bb78	-0.70598555
141	0x3f08c5df	0.5342693
142	0x3edee89d	0.43536845
143	0xbedb05fb	-0.42778
144	0xbe8c2c69	-0.27377632
145	0xbe779ec3	-0.24181657
146	0xbecc22be	-0.39870256
147	0x3f27cd21	0.65547377
148	0x3dc5de26	0.09661512
149	0x3dde2430	0.10846746
150	0xbe93419c	-0.28760993
151	0x3e7bdbef	0.24595617
152	0x3993d97c	0.00028200063
153	0x3e1de16a	0.1541802
154	0x3e638f29	0.2222258
155	0x3d953690	0.072857976
156	0xbf1abada	-0.6044136
157	0xbeb6e363	-0.35720357
158	0xbe8fca44	-0.28084004
159	0x3ef4948b	0.4776958
160	0xbe8832a4	-0.26601136
161	0xbedf36e3	-0.43596563
162	0x3f0bf52c	0.5467098
163	0xbd460d2f	-0.048352417
164	0xbd7d9470	-0.06190914
165	0xbe137897	-0.1440147
166	0x3b139426	0.0022518723
167	0xbeaa7e46	-0.33299464
168	0xbea27762	-0.31731707
169	0xbf0211eb	-0.5080859
170	0xbdcd5042	-0.100250736
171	0x3dd5efdf	0.104461424
172	0xbd13f6d4	-0.036124066
173	0xbec2e6c9	-0.380667
174	0x3e360ba9	0.17777885
175	0x3e744dc9	0.23857798
176	0x3e7ed8f0	0.24887443
177	0x3d96ce3b	0.07363554
178	0x3e35d3cd	0.17756577
179	0x3e9e6c88	0.30942178
180	0xbdbf3d27	-0.09337836
181	0xbcc48b53	-0.023992216
182	0x3d43c719	0.047797296
183	0xbf877229	-1.0581714
184	0xbe829daa	-0.25510913
185	0xbe856dba	-0.26060277
186	0xbe869000	-0.26281738
187	0xbe90af0e	-0.28258556
188	0xbec37031	-0.38171533
189	0x3dea17aa	0.11430295
190	0x3d0ff0cf	0.035141762
191	0x3d861833	0.065475844
192	0xbe8bfaa7	-0.2733967
193	0x3e2a0966	0.16605148
194	0x3d6aecd4	0.057354763
195	0x3c5126b9	0.01276558
196	0x3dc20e43	0.094753765
197	0x3dc765d9	0.09736223
198	0x3de1f080	0.110322
199	0x3edea599	0.43485716
200	0x3f21f1be	0.63259494
201	0xbfa8d6fc	-1.3190608
202	0xbe72edc0	-0.23723507
203	0xbd58af82	-0.052901752
204	0xbe9fc8a8	-0.31207776
205	0xbf2b84bc	-0.6699941
206	0xbe572d59	-0.21013393
207	0xbc95f91f	-0.018307267
208	0x3dfd4a2f	0.12367665
209	0xbe59e29f	-0.21277855
210	0xbf2c5822	-0.6732198
211	0x3f365b44	0.7123301
212	0x3e67767b	0.2260379
213	0xbf2a1f94	-0.66454434
214	0xbf33266f	-0.6998052
215	0xbe93a226	-0.28834647
216	0x3ebb702e	0.36609024
217	0x3f08482a	0.53235114
218	0x3f4c895b	0.7989709
219	0xbd03f139	-0.03221247
220	0x3e7435a1	0.23848583
221	0x3e1b7c35	0.151841
222	0xbed1b294	-0.40956557
223	0x3e48b209	0.19599165
224	0xbe0c8390	-0.13722062
225	0x3e343cfa	0.17601386
226	0xbe966119	-0.29370955
227	0xbe33e01b	-0.17565958
228	0xbde525e5	-0.111888684
229	0x3e01b9a8	0.12668478
230	0x3e215403	0.15754704
231	0xbe6d380f	-0.23165916
232	0xbc410bb9	-0.01178258
233	0x3e68f095	0.22748025
234	0xbe9cd83c	-0.30633724
235	0xbf1ca41e	-0.6118792
236	0xbe816ca1	-0.2527819
237	0xbf46e4e5	-0.77693015
238	0xbe36545a	-0.17805615
239	0x3f1bedfb	0.60910004
240	0x3e97aad8	0.2962253
241	0xbefde581	-0.4958916
242	0xbf2cdb9b	-0.6752259
243	0x3df4ad44	0.1194711
244	0xbe8b04e4	-0.2715217
245	0xbea2b71c	-0.31780326
246	0x3d4a56f0	0.049399316
247	0x3e02bf28	0.12768233
248	0x3e5884cd	0.2114441
249	0xbded87e6	-0.11598186
250	0x3d91eb53	0.07124963
251	0x3e878de4	0.2647544
252	0x3e5fd216	0.21857485
253	0x3d9122c9	0.07086713
254	0x3caafc54	0.020872273
255	0xbed84ada	-0.42244607

conv2.bias f4 [32]
0	0xbe66e1f0	-0.22547126
1	0xbbdf31b5	-0.0068113455
2	0xbeec3915	-0.461373
3	0xbdba2256	-0.0908858
4	0xbe9263f2	-0.28591877
5	0x3e816763	0.2527419
6	0x3f0bd3f7	0.5462031
7	0x3f4f2c0d	0.8092659
8	0xbd13d3e2	-0.03609074
9	0xbe347822	-0.17623952
10	0x3e21a66d	0.15786143
11	0xbe033cfb	-0.12816231
12	0x3da50942	0.080584064
13	0xbe0ff945	-0.14059933
14	0xbd7a008b	-0.061035674
15	0xbd3e7899	-0.04650173
16	0x3e197857	0.14987312
17	0xbe1baad8	-0.1520189
18	0xbd984068	-0.074341595
19	0x3eefacf7	0.4681165
20	0xbcffa764	-0.031207748
21	0x3f1d9f11	0.6157084
22	0xbd045282	-0.032305248
23	0x3d8500c6	0.06494288
24	0x3e40657b	0.18788712
25	0xbdb3c8fe	-0.087785706
26	0xbdc7f3aa	-0.09763272
27	0x3dd25e67	0.10271912
28	0x3d127418	0.035755247
29	0xbd035dcd	-0.032071877
30	0xbd38b563	-0.04509486
31	0xbee4f696	-0.4471938

linear1.weight f4 [128, 800]
0	0x3d6c1683	0.057638656
1	0xbd8bddd7	-0.06829422
2	0xbecc5567	-0.39908907
3	0xbea89491	-0.32925847
4	0xbeb88f6a	-0.36046916
5	0xbe46f3d4	-0.1942895
6	0xbf03c232	-0.51468194
7	0x3ef6d305	0.4820787
8	0xbe2a88a4	-0.16653687
9	0x3e2eccfe	0.17070386
10	0xbd00d44a	-0.031452455
11	0xbed8c7b1	-0.42339852
12	0xbdf64f0a	-0.12026794
13	0xbd4c4fa0	-0.049880624
14	0x3e9f7e09	0.31150845
15	0x3beb14e6	0.007174122
16	0x3d6938d2	0.056938954
17	0xbd9e356d	-0.07725034
18	0x3e3ced8b	0.1844999
19	0x3dd244e4	0.10267046
20	0xbe5f4ffb	-0.21807854
21	0x3c560d95	0.013064762
22	0x3d1dbd75	0.03851076
23	0x3d1912bc	0.037371382
24	0xbe6fc39c	-0.23414463
25	0xbefec4d1	-0.49759534
26	0xbe8a708c	-0.2703899
27	0x3e23e381	0.16004755
28	0x3e16d2ef	0.14728902
29	0x3f0642cf	0.5244569
30	0x3cdc31a6	0.026879143
31	0xbeba8c69	-0.3643525
32	0xbc0b1d4f	-0.008490874
33	0xbe80924a	-0.2511161
34	0xbe4f1f2d	-0.20226736
35	0xbc95179f	-0.01819974
36	0x3e85f27b	0.2616156
37	0x3dfa48d3	0.12220921
38	0xbd81f24e	-0.06345044
39	0xbd40efe2	-0.04710377
40	0x3e33afd3	0.1754754
41	0xbdbb1f27	-0.09136801
42	0xbebd2058	-0.3693874
43	0x3d69a076	0.057037793
44	0xbe3a5f01	-0.18200304
45	0x3c6cf533	0.014462757
46	0xbd7159b1	-0.058923427
47	0x3e8ac073	0.27099952
48	0x3dfbce9d	0.12295268
49	0xbebd59b6	-0.36982507
50	0xbf323177	-0.6960673
51	0xbdbef77a	-0.09324546
52	0xbda3e97c	-0.08003518
53	0xbdb50550	-0.08838904
54	0xbebbc6d7	-0.3667514
55	0x3d05ff9a	0.032714464
56	0x3ca79967	0.02045889
57	0x3e6e5766	0.23275527
58	0x3e4eb8cc	0.20187682
59	0x3da361d9	0.07977647
60	0x39fb18ae	0.00047892838
61	0xbec32c01	-0.3811951
62	0xbd2a5060	-0.041580558
63	0x3e95a58c	0.29227865
64	0x3d8b157b	0.067912064
65	0x3d05b64c	0.032644555
66	0xbefb97f7	-0.49139377
67	0xbe9ed019	-0.3101814
68	0x3ea39833	0.31952056
69	0x3e3c540c	0.18391436
70	0x3e68c162	0.2273002
71	0xbf11c630	-0.56943035
72	0x3e9b4209	0.30323818
73	0xbe50913c	-0.20367903
74	0xbc9b94e7	-0.0189919
75	0xbe10e069	-0.14148106
76	0x3cf67adf	0.030087886
77	0xbe28b0bc	-0.16473669
78	0xbe0d52bd	-0.13801093
79	0xbedda0b0	-0.43286657
80	0xbce82236	-0.028336626
81	0x3c424b27	0.011858738
82	0x3c03f127	0.008053101
83	0xbf00df8b	-0.503411
84	0x3eec9e02	0.462143
85	0xbe55f29c	-0.2089333
86	0xbec0d8fa	-0.3766554
87	0xbe5e8e87	-0.21734057
88	0x3e8e2f9e	0.27770704
89	0x3eb7b2ea	0.35878688
90	0x3d5632ae	0.052294426
91	0xbe140714	-0.14455825
92	0x3e88f222	0.26747233
93	0x3dde1c5d	0.108452536
94	0x3e8f5135	0.27991644
95	0x3d9fc06c	0.078003734
96	0xbe86d483	-0.2633401
97	0xbe65ecb9	-0.22453584
98	0xbe651911	-0.22372843
99	0x3e56d5b2	0.20979956
100	0xbcadd23a	-0.021218408
101	0xbeb2547e	-0.34830087
102	0xbe1df961	-0.15427162
103	0xbdf46f19	-0.11935253
104	0xbd901c3a	-0.07036634
105	0xbf2b0a05	-0.66812164
106	0x3c227e8a	0.009917865
107	0x3ec736c4	0.3890897
108	0x3e383f3b	0.1799287
109	0x3ce95394	0.028482236
110	0xbefe3bad	-0.49654904
111	0x3e55ed1b	0.2089123
112	0xbe9a8c96	-0.30185384
113	0xbe4c5764	-0.19955212
114	0x3e1fe3cb	0.1561424
115	0xbe2ff7b3	-0.17184334
116	0xbe0a5174	-0.13507634
117	0xbe921b5f	-0.28536507
118	0x3e87512a	0.2642911
119	0xbe6bd1b2	-0.23029211
120	0x3e0a0315	0.13477738
121	0x3d89c031	0.06726111
122	0x3e63dbf5	0.22251876
123	0x3e9740bb	0.29541573
124	0x3e98d2a4	0.29848206
125	0x3f0123d2	0.5044528
126	0xbe6046b9	-0.21901979
127	0xbe922fda	-0.28552133
128	0xbe951e66	-0.29124755
129	0x3dc11110	0.094270825
130	0x3dbcecc2	0.092248455
131	0xbec842ba	-0.39113408
132	0x3e9caff9	0.30603006
133	0xbda228d8	-0.079179466
134	0x3e1400d8	0.14453447
135	0xbe821cde	-0.2541265
136	0x3e89f289	0.26942852
137	0xbddf094c	-0.10890445
138	0xbd4f718f	-0.050645407
139	0xbe656cdd	-0.2240481
140	0x3eb58a20	0.35456944
141	0x3c8e3187	0.0173576
142	0xbeb97cfe	-0.36228174
143	0xbe5500b5	-0.20801051
144	0x3e4703bb	0.19435017
145	0x3e839b01	0.25704196
146	0xbedde18b	-0.43336138
147	0xbe09fff3	-0.13476543
148	0x3e14ca58	0.14530313
149	0x3eabb1e9	0.33534172
150	0x3f2e9c2d	0.68207055
151	0x3e3301c3	0.17481141
152	0x3e31cca3	0.17363219
153	0x3e385ea3	0.18004851
154	0x3e413e7e	0.18871495
155	0xbd89beca	-0.06725843
156	0xbd99d499	-0.07511253
157	0x3e8cc7de	0.27496237
158	0x3dc673dd	0.09690068
159	0x3d485afc	0.048914894
160	0xbe3c7dac	-0.18407315
161	0x3dda0c31	0.106468566
162	0xbde2dfba	-0.11077829
163	0xbe501ead	-0.20324202
164	0x3c355a82	0.011068942
165	0x3e9d1386	0.30678958
166	0x3cb2f91d	0.021847302
167	0xbdbbc06f	-0.09167563
168	0x3ecec8e4	0.40387642
169	0x3e61ab45	0.2203799
170	0xbdddb4c0	-0.10825491
171	0xbd00dfa3	-0.031463277
172	0x3d724df4	0.059156373
173	0x3dac9b51	0.08428062
174	0x3ea1d87d	0.3161048
175	0x3f20b04b	0.62769
176	0x3df0668e	0.11738311
177	0x3dc76255	0.09735552
178	0x3ea2ec1b	0.3182076
179	0x3dabc0dd	0.08386395
180	0xbe802721	-0.25029853
181	0x3e842abe	0.2581386
182	0x3d96d3e5	0.073646344
183	0x3e897e92	0.26854378
184	0xbd6fa89d	-0.05851041
185	0xbd610f49	-0.054946218
186	0x3d8f776c	0.070052
187	0x3cba01ae	0.022705879
188	0x3dcbf7fe	0.0995941
189	0xbeecf7e4	-0.46282876
190	0x3f0d30a1	0.55152327
191	0xbe1603a8	-0.14649832
192	0xbe785d97	-0.24254452
193	0xbeb53902	-0.35395056
194	0xbf47c7a0	-0.7803898
195	0x3e8f09c4	0.27937138
196	0xbdbd07d4	-0.09230009
197	0xbe97099f	-0.29499528
198	0xbe2da8b9	-0.16958894
199	0xbc954148	-0.018219605
200	0xbe6d72b1	-0.23188283
201	0x3e50ef48	0.20403779
202	0x3e8ca021	0.2746592
203	0xbc8da8d0	-0.01729241
204	0xbd3aa93d	-0.045571554
205	0xbd73fe6c	-0.059568807
206	0xbe82dd7f	-0.25559613
207	0x3d581b4d	0.05276041
208	0xbdfc3dad	-0.12316451
209	0xbdd5c38e	-0.1043769
210	0x3cb4cffc	0.02207183
211	0xbee0915b	-0.43860897
212	0xbe457da8	-0.19286215
213	0xbc4e9e66	-0.012611007
214	0x3db9a5f2	0.09064855
215	0x3c809682	0.015696768
216	0xbee738f9	-0.45160654
217	0x3d745b4b	0.059657376
218	0x3d797740	0.06090474
219	0x3e2db07c	0.16961855
220	0xbe293b1e	-0.16526458
221	0xbf247fb0	-0.64257336
222	0xbd4a8e8d	-0.049452353
223	0xbf34a7c6	-0.705685
224	0x3cc9f48c	0.024652742
225	0xbd1e52e8	-0.038653284
226	0xbb506a48	-0.003180163
227	0xbec3d6ee	-0.38249916
228	0x3e744a7b	0.23856537
229	0xbe55b486	-0.20869645
230	0xbda616a9	-0.08109791
231	0x3c3f4e57	0.0116763925
232	0xbeb3f2d4	-0.351462
233	0x3b86f854	0.0041189585
234	0xbe1f00f8	-0.15527713
235	0xbd03e2da	-0.032198764
236	0x3d8e4f6d	0.06948743
237	0xbe894f16	-0.2681815
238	0xbe66de64	-0.22545773
239	0xbc866c4b	-0.01640906
240	0x3d3c7ac5	0.04601552
241	0xbe25472f	-0.16140436
242	0x3edabe7e	0.4272346
243	0xbe749389	-0.23884405
244	0x3cc6c05a	0.024261642
245	0x3d4d310e	0.05009561
246	0xbe36930c	-0.17829531
247	0x3e8322df	0.25612542
248	0xbef94b7e	-0.48690408
249	0xbcc3f814	-0.023922004
250	0xbe96772f	-0.29387805
251	0xbef07577	-0.4696462
252	0xbdb9ac52	-0.090660706
253	0xbe216e96	-0.15764841
254	0x3dbc3e0d	0.09191523
255	0xbebd54ce	-0.36978763

linear1.bias f4 [128]
0	0xbc0bbe84	-0.008529309
1	0x3d3c40f5	0.045960385
2	0xbbdf5a1e	-0.0068161627
3	0xbbdcdc85	-0.006740155
4	0xbd326426	-0.04355254
5	0xbddb01c4	-0.10693696
6	0x3d53d317	0.051714983
7	0x3da1ba77	0.078968935
8	0x3ca6aab0	0.020345062
9	0x3d9d6ee2	0.07687165
10	0xbd90901b	-0.07058736
11	0xbd0737d7	-0.033012237
12	0x3e746e6a	0.23870245
13	0x3d9dc799	0.07704086
14	0xbe0b448f	-0.13600372
15	0x3e3af95a	0.18259183
16	0xbdff6fae	-0.12472473
17	0x3e5b5f40	0.21423054
18	0xbe531f2f	-0.20617364
19	0xbdcc6632	-0.0998043
20	0x3d808f68	0.062773526
21	0xbd5f6642	-0.05454088
22	0xbe964320	-0.29348087
23	0x3d182bba	0.037151076
24	0xbd2839be	-0.041070692
25	0x3de95bed	0.113944866
26	0xbe27342e	-0.16328499
27	0xbdaad2cd	-0.08340988
28	0x3def3072	0.11679162
29	0xbda38194	-0.079836994
30	0xbe03ff12	-0.1289027
31	0x3e2033a2	0.15644696
32	0x3d3f2ae9	0.04667178
33	0x3c9d548f	0.01920536
34	0x3e005057	0.12530647
35	0x3d5aa15f	0.05337655
36	0x3e6d5092	0.23175266
37	0x3c51a6c7	0.0127961105
38	0x3d1d978b	0.0384746
39	0xbe8b08ef	-0.27155253
40	0x3d5e8ec3	0.054335367
41	0xbe05077b	-0.12991135
42	0xbe6d6861	-0.23184349
43	0xbd4e7e45	-0.05041339
44	0xbdbfecde	-0.09371351
45	0xbdb466e1	-0.08808685
46	0xbd0c1325	-0.034197945
47	0xbddafd47	-0.1069284
48	0xbdba2379	-0.09088797
49	0x3c805bcc	0.015668772
50	0xbe0128ee	-0.1261327
51	0xbe2816eb	-0.16414993
52	0xbc849f9c	-0.016189389
53	0x3e606d48	0.21916687
54	0x3d4b6a2f	0.04966181
55	0xbe757264	-0.23969418
56	0xbd8a3177	-0.06747716
57	0x3ab5fe0b	0.0013884915
58	0xbdb68abe	-0.08913182
59	0x3e718df2	0.23589304
60	0x3e45c1a5	0.19312151
61	0x3de14053	0.10998597
62	0x3e62b6cb	0.22140042
63	0x3de92541	0.11384059
64	0x3eaf2bd0	0.34213114
65	0xbd20acb9	-0.03922722
66	0xbdd48c61	-0.10378338
67	0x3d09a279	0.03360221
68	0xbe111a63	-0.14170222
69	0x3de27b5f	0.110586874
70	0x3dc70deb	0.097194515
71	0xbdb1790a	-0.086656645
72	0x3e02cd65	0.12773664
73	0xbd5d81da	-0.054078914
74	0x3e8ac73e	0.27105135
75	0x3e83a34b	0.2571052
76	0x3dc5d29a	0.0965931
77	0x3d520743	0.051276457
78	0xbd9bcacf	-0.07607042
79	0xbe24fa82	-0.16111186
80	0xbe235c14	-0.15953094
81	0xbe309a08	-0.17246258
82	0x3e861ba7	0.26192972
83	0xbd9e6268	-0.07733613
84	0x3b15a39b	0.0022833112
85	0xbcf48d87	-0.029852642
86	0xbe27ee3f	-0.16399477
87	0x3d574adf	0.052561637
88	0xbd948ebb	-0.07253786
89	0xbe037a9f	-0.12839745
90	0x3d819145	0.06326536
91	0xbd12de58	-0.035856575
92	0xbe4354c1	-0.190753
93	0xbe1415aa	-0.14461389
94	0xbd5317a8	-0.051536232
95	0xbe008ae8	-0.12552989
96	0xbce7f7f3	-0.028316474
97	0xbd569795	-0.052390654
98	0x3c9fe010	0.019516021
99	0xbeb97252	-0.36220032
100	0x3e41cd64	0.18926007
101	0xbd246d3e	-0.040143244
102	0xbda96ce3	-0.082727216
103	0xbd801fb9	-0.062560506
104	0x3d313ced	0.043270994
105	0x3d83b27b	0.06430527
106	0x3c0ad9f8	0.008474819
107	0xbd117173	-0.035508584
108	0xbd3e5a41	-0.04647279
109	0x3d3a55da	0.04549203
110	0x3dc02f2c	0.09383997
111	0xbd8be502	-0.06830789
112	0x3bda016d	0.006653002
113	0x3e063951	0.13107802
114	0x3ccb3624	0.02480609
115	0xbe64ff09	-0.22362913
116	0x3c3e40f4	0.011612166
117	0xbdaac851	-0.083389886
118	0xbe0342ec	-0.12818497
119	0xbe31c4a8	-0.17360175
120	0x3e0afb92	0.13572529
121	0xbdcd0e09	-0.100124426
122	0xbdb992a8	-0.090611756
123	0x3cd5790c	0.026058696
124	0x3dc359d3	0.09538617
125	0x3e6ba8e2	0.23013642
126	0x3b1a3ab1	0.0023533518
127	0xbde95996	-0.1139404

linear2.weight f4 [10, 128]
0	0x40111841	2.2671053
1	0x3eb3e814	0.35138
2	0xc0024d98	-2.035986
3	0xbf9d5871	-1.2292615
4	0xbf4bdfe7	-0.7963852
5	0xbfad90b5	-1.3559786
6	0x3f432cff	0.76240534
7	0xbfdcc9ca	-1.7249081
8	0xbfa93884	-1.3220372
9	0xbff8ad35	-1.9427859
10	0x3eb317e0	0.34979153
11	0x3e904678	0.28178763
12	0x3e186f56	0.14886221
13	0x3e361038	0.17779624
14	0xbcd88089	-0.026428478
15	0xbed0d03a	-0.40783864
16	0xbeec8b05	-0.46199813
17	0xbff540c4	-1.916039
18	0xbf5f1fe4	-0.87158036
19	0x3f843395	1.0328242
20	0x3e8d8c07	0.27645895
21	0xbfc50c78	-1.539443
22	0x3f44496f	0.7667455
23	0x3fbc9570	1.4733105
24	0x3f899ef1	1.075163
25	0x3e6c7f2c	0.23095387
26	0x3fcd6aca	1.6048214
27	0x3fc32983	1.5247043
28	0x3daa19a0	0.08305669
29	0x3f021ab8	0.5082202
30	0xbfc1b384	-1.5132909
31	0x3e9318f3	0.28729972
32	0x3f087b83	0.53313464
33	0xc017e9d7	-2.3736475
34	0x3e168d0e	0.14702246
35	0xbecba79c	-0.39776313
36	0xc01da72e	-2.4633288
37	0x3f4f3aa7	0.8094887
38	0x3e42dbe6	0.19029197
39	0x3ed1b5e5	0.40959087
40	0xbfa4e8bf	-1.2883528
41	0x3f104109	0.56349236
42	0xbf27c4ee	-0.65534866
43	0x3f0062a4	0.50150514
44	0xbd554b0c	-0.052073523
45	0xbe92c01d	-0.28662196
46	0x3ef10fc3	0.47082338
47	0xbfbc4bbd	-1.4710613
48	0x3eb44a64	0.35213006
49	0x3f4e491d	0.8058031
50	0x3e076250	0.13221097
51	0xbeaba349	-0.33523014
52	0x3f07643a	0.5288731
53	0xbf1527d3	-0.5826389
54	0xbf7362e9	-0.950728
55	0xbe78f422	-0.2431188
56	0x3df33fab	0.11877378
57	0x3e27bf47	0.1638156
58	0xbfda8e45	-1.7074667
59	0x3e767035	0.24066241
60	0x3ecd0821	0.40045264
61	0x3f993e0a	1.1972058
62	0x3db3a34b	0.0877138
63	0x3f5c5b82	0.8607713
64	0xbd699c0b	-0.05703358
65	0xbf4c0220	-0.7969074
66	0x3ed9f919	0.4257286
67	0x3f3de615	0.741792
68	0x3f353329	0.7078119
69	0xbfc7a5bd	-1.5597454
70	0xc007b855	-2.1206257
71	0x3f196556	0.5992025
72	0xc0184cdf	-2.3796918
73	0x3e6d8dfc	0.23198694
74	0xbf4c67e5	-0.7984603
75	0xbf33937d	-0.70146924
76	0x3da4daf4	0.080495745
77	0xbfc6ccc7	-1.5531243
78	0x3fd0c3e6	1.6309783
79	0xbfd67c8c	-1.6756759
80	0x3f433b91	0.76262766
81	0x3f09bad3	0.53800696
82	0xc004c654	-2.074605
83	0x3de2fbe3	0.110832
84	0xc00f797f	-2.2417905
85	0x3f453df0	0.77047634
86	0xbfa094a9	-1.2545367
87	0x3fb23a0a	1.3923962
88	0x3f99deb3	1.2021087
89	0x3f26e731	0.6519652
90	0xbf5ab9e4	-0.85439897
91	0x3faf2627	1.3683518
92	0xbfb3e12e	-1.4053094
93	0x3f9c923a	1.2232125
94	0x3f392521	0.7232228
95	0x3f31cbfd	0.69451886
96	0x3f868f43	1.051247
97	0xbf84c715	-1.0373255
98	0x3e95edac	0.29282892
99	0x3dbf6182	0.0934477
100	0xbf7019b2	-0.9378921
101	0xbfda863b	-1.7072214
102	0xbf59edf3	-0.85128707
103	0xc0267a71	-2.6012232
104	0x3f1d412e	0.6142758
105	0xbf7f6951	-0.99770075
106	0x3f10abd8	0.5651221
107	0x3dbd8914	0.09254661
108	0xbfd7a907	-1.6848458
109	0x3d8e9ff3	0.06964102
110	0x3e29f557	0.16597496
111	0xbf993fc0	-1.197258
112	0x3e9c7265	0.30556026
113	0xc040001e	-3.0000072
114	0x3f878075	1.0586077
115	0x3f73b66d	0.95200235
116	0x3f3ed0c0	0.7453728
117	0x401f4aa8	2.4889317
118	0x3f6c7d62	0.9237882
119	0x3fbfd79b	1.4987673
120	0x3eee1c78	0.46506095
121	0x3f93fc68	1.1561403
122	0x3fd87e17	1.691348
123	0x40026eb4	2.0380068
124	0x3f96aa4b	1.1770719
125	0x3ef6e06e	0.482181
126	0x3f4544cc	0.770581
127	0xbfb2027d	-1.3907009
128	0xbf844874	-1.0334611
129	0xbd5efafe	-0.054438584
130	0x3f5315c5	0.8245509
131	0x3e96ab8a	0.2942775
132	0x3da08217	0.07837313
133	0x3eb97bf0	0.3622737
134	0x3fba1a90	1.4539356
135	0x3cfa8596	0.030581277
136	0xbcce560f	-0.02518752
137	0xbfac2e4d	-1.345163
138	0xbff060ec	-1.8779578
139	0xbfb11cc6	-1.3836906
140	0xbf3eaefb	-0.7448575
141	0xbf319fd0	-0.6938448
142	0x3e632cff	0.22185133
143	0x3e91011b	0.28321156
144	0x3f142894	0.5787442
145	0xbed19d7c	-0.40940464
146	0xbe5dca8f	-0.21659301
147	0xbdc7808d	-0.09741316
148	0x3a3464ea	0.00068814924
149	0x3e8cf4d3	0.27530536
150	0xbeba6b46	-0.36409968
151	0x3e067fa5	0.1313463
152	0x3f737b72	0.9511024
153	0x3dfb3219	0.12265415
154	0xbf6126e4	-0.8794997
155	0xbfb0e8f6	-1.3821094
156	0x3cae390f	0.021267442
157	0xbface260	-1.3506584
158	0xbfb1945c	-1.3873401
159	0xbefc7548	-0.49308228
160	0x3f4cf948	0.80067873
161	0xbfbe03c0	-1.4844894
162	0xbe18d78e	-0.14925978
163	0xbfc203f4	-1.5157456
164	0xbf2775be	-0.65414035
165	0x3eb955d9	0.3619831
166	0x3e2bb33f	0.16767596
167	0x3e9adde9	0.3024743
168	0x3e0e0a12	0.13871029
169	0x3f423fd0	0.7587862
170	0x3eb18cfd	0.34677878
171	0x3ebff835	0.37494054
172	0x3e84809b	0.25879368
173	0x3f2a4729	0.6651483
174	0xc0086f9f	-2.1318128
175	0x3ea14df9	0.315048
176	0x3d7b369f	0.061331388
177	0xbea33ea7	-0.31883737
178	0xbd2c790c	-0.042107627
179	0x3f0cdf66	0.5502838
180	0x3e0b4745	0.13601406
181	0xbf4e4828	-0.8057885
182	0x3d63a8ae	0.055580787
183	0x3f02de04	0.5112002
184	0xbfb840a4	-1.4394727
185	0x3e12fcd1	0.14354254
186	0xbf330f18	-0.69944906
187	0xbf91965a	-1.1374009
188	0x3f0a3b9c	0.53997207
189	0xbfac8404	-1.3477788
190	0x3e820234	0.25392306
191	0xbf12703d	-0.5720251
192	0xbfeb3277	-1.8374776
193	0x3ecfa9a3	0.4055911
194	0xbee10ed1	-0.43956617
195	0x3e186a76	0.14884362
196	0x3f410db3	0.7541153
197	0xbf5b1a5d	-0.855871
198	0xbef7bc8b	-0.48386034
199	0x3e049f67	0.12951432
200	0xbe54a161	-0.20764686
201	0x3e151045	0.14556988
202	0x3f07c4bf	0.53034586
203	0x3ea5fe9d	0.32420817
204	0xbdca9540	-0.098917484
205	0x3f62a4b9	0.88532597
206	0x3d1a3eef	0.037657674
207	0x3ebcfeb5	0.36913076
208	0x3e8bea3e	0.2732715
209	0xbfafe2bc	-1.3741069
210	0xbe8f7619	-0.2801979
211	0x3e0e8323	0.13917212
212	0x3eca9735	0.39568487
213	0xbeec8c6f	-0.46200892
214	0xbf43713a	-0.76344645
215	0x3f47e85d	0.78088933
216	0xbd35ed72	-0.0444159
217	0x3ec0c03c	0.37646663
218	0x3ef7eb71	0.48421815
219	0x402184c9	2.5237296
220	0xbe5d1c31	-0.21592785
221	0x3f866969	1.0500919
222	0xbdc434d2	-0.09580387
223	0x3e32b1bc	0.17450613
224	0x3f17f4be	0.5935782
225	0x3c9e0ab1	0.019292207
226	0xbdc7c567	-0.097544484
227	0x3f1abd76	0.60445344
228	0x3f387557	0.72054046
229	0xbf31c926	-0.69447553
230	0xbecec86f	-0.40387294
231	0xbfb3fb48	-1.406106
232	0xbf0d2d11	-0.5514689
233	0x3f2ca83d	0.6744421
234	0x3e6f6ada	0.23380604
235	0xbde8d830	-0.113693595
236	0x3f3cb522	0.73713887
237	0x3cff3136	0.031151395
238	0x3fc03534	1.5016236
239	0xbefddd5a	-0.4958294
240	0xc067ceb3	-3.621991
241	0xbf013edd	-0.50486547
242	0xbf3d5320	-0.73954964
243	0x3ec1accd	0.3782715
244	0x3ed07463	0.40713796
245	0x3faf17c4	1.3679128
246	0xbec4ad2a	-0.38413364
247	0x3e8d9e73	0.2765995
248	0xbf5c7fd2	-0.8613254
249	0x3f4efaff	0.8085174
250	0x3d9465ff	0.07246017
251	0xbe2da273	-0.169565
252	0xbec8545f	-0.3912687
253	0x3e88d20e	0.2672276
254	0xbeac7dc8	-0.33689713
255	0xbd875ba4	-0.06609276

linear2.bias f4 [10]
0	0x3d93d30a	0.07217987
1	0xbc829966	-0.015942287
2	0x3d1ee2c8	0.038790494
3	0x3c30b7e9	0.010786035
4	0x3dba2473	0.090889834
5	0xbda3887a	-0.07985015
6	0x3a283319	0.00064163056
7	0x3cf4d2a0	0.02988559
8	0x3de3288a	0.110917166
9	0xbd7df910	-0.062005103
